networks/cifar/convSmallRELU__Point.onnx (onnx, 502302 bytes, 8 tensors)

1.bias f4 [16]
000000 44 b2 13 bd 0a e9 ea 3c 5b bd e5 3b ba 45 a3 bd
       -0.03605868 0.028675575 0.0070110983 -0.07972284
000010 02 0e 79 bd c2 fa 8a 3a 60 4c 0b 3d aa 87 04 bd
       -0.060804375 0.0010603296 0.034008384 -0.03235594
000020 3d b3 bb bd f9 d0 14 bc 4e 24 78 3c 89 24 8d 3d
       -0.09165046 -0.009083026 0.015145374 0.06891734
000030 cc 35 1c 3e 0b 64 35 3e 30 f8 eb 3e ad 43 12 3d
       0.15254897 0.17713945 0.4608779 0.035709072

1.weight f4 [16, 3, 4, 4]
000000 53 84 8f be 4c ce 84 be 52 4c e3 bd 26 a9 11 bc
       -0.28030643 -0.25938642 -0.11098541 -0.008890426
000010 db be a7 be ba 5d 8a be 96 01 b4 bd f5 b2 f8 3c
       -0.327628 -0.27024633 -0.08789365 0.03035877
000020 ca ba bd be b4 54 a3 be fe ee 0f be bf e0 87 3c
       -0.3705657 -0.3190056 -0.14056012 0.01658666
000030 2e 1b a9 be 2f 17 9d be 3d c2 24 be 42 0d a4 bc
       -0.3302855 -0.3068175 -0.16089721 -0.020025853
000040 12 29 23 be d2 de b4 bd 25 4e af 3d 41 ea 31 3e
       -0.15933636 -0.08831562 0.08559827 0.17374517
000050 44 fd 34 be cf 53 82 bd 24 0b 15 3e 53 3b 7d 3e
       -0.17674738 -0.063636415 0.14555031 0.24729662
000060 fd a6 5f be 92 8f f0 bd 69 d5 ac 3d 77 d6 67 3e
       -0.21841045 -0.11746134 0.08439142 0.22640406
000070 04 81 4b be 12 5c 10 be b6 9f 94 3c b5 63 10 3e
       -0.19873434 -0.14097622 0.018142562 0.14100535
000080 52 1f ff 3d a5 3b 67 3e fb e3 c4 3e dd 20 db 3e
       0.12457146 0.22581346 0.38455185 0.4279851
000090 ee b9 fe 3d 05 85 8b 3e b5 e7 ea 3e f7 01 03 3f
       0.12437807 0.27249923 0.45879903 0.51174873
0000a0 f8 72 a6 3d 3c 26 55 3e b8 a0 c2 3e be e3 f2 3e
       0.08127397 0.20815367 0.38013244 0.47439378
0000b0 d9 9c 8d 3d df e0 16 3e 7e 83 8c 3e 27 f0 b4 3e
       0.06914682 0.14734219 0.2744407 0.35339472
0000c0 d9 4a 5e 3e c5 47 af 3e 66 36 89 3e e7 b6 4c 3e
       0.2170824 0.34234443 0.26799315 0.19991647
0000d0 21 e3 bb 3e 1d 3e 0a 3f d4 9a eb 3e f6 cd a0 3e
       0.36696723 0.5400103 0.46016562 0.31407136
0000e0 df b6 a8 3e 9e 13 ee 3e ab b1 d0 3e 3d 74 82 3e
       0.3295202 0.46499342 0.4076055 0.25479308
0000f0 79 4f 57 3e cb ed 8e 3e 91 10 66 3e a9 df 0b 3e
       0.2102641 0.27915797 0.22467257 0.13659538
000100 a3 06 2c 3e 6f 73 a2 3e 3c c6 80 3e 5a c6 45 3e
       0.16799407 0.31728694 0.2515124 0.19313946
000110 74 b3 a0 3e 8f eb 01 3f a9 99 de 3e 7d dc 99 3e
       0.31386912 0.5075006 0.43476608 0.30051032
000120 37 b0 87 3e 6b 08 d4 3e 20 7c bc 3e 13 cb 73 3e
       0.2650163 0.41412672 0.3681345 0.23807935
000130 ed b7 0b 3e 40 7f 63 3e cb e6 3e 3e bf 90 02 3e
       0.13644381 0.22216511 0.18642728 0.12750529
000140 20 68 2b 3e 61 44 a7 3e ea 3f 8e 3e 0d 65 65 3e
       0.1673894 0.32669356 0.27783138 0.22401829
000150 a4 23 97 3e 5d e7 00 3f a5 ac e1 3e 01 9a 9e 3e
       0.2951938 0.5035303 0.4407703 0.3097687
000160 60 09 5f 3e 5a cb c6 3e 10 ae b3 3e f3 bc 63 3e
       0.2178092 0.3882702 0.35093737 0.22240047
000170 ce 8f b5 3d bc 72 44 3e 6d 44 1e 3e 96 45 cd 3d
       0.08865319 0.19184393 0.1545579 0.10023038
000180 c1 15 53 bd 41 53 7c bd 91 d5 15 3c 2c cd 93 3d
       -0.051534418 -0.061602835 0.0091451565 0.07216868
000190 6d 6e ee bd ae e0 f3 bd 91 d2 a4 3c e6 28 00 3e
       -0.11642156 -0.119080886 0.020119937 0.12515602
0001a0 fa 7a 0c be 3f 79 06 be 03 af af 3c 3a b9 0d 3e
       -0.13718787 -0.13132189 0.021445757 0.1384019
0001b0 59 1b ec bd 91 ab cc bd af 2a ae 3c e6 02 c9 3d
       -0.11528654 -0.09993661 0.021260587 0.09815006
0001c0 ed 63 89 bc f1 d2 a6 bc 4a cc 59 3d 8f 98 e4 3d
       -0.016771281 -0.020364257 0.05317334 0.11161911
0001d0 ad 86 a7 bd c9 df a1 bd d7 43 84 3d 41 48 2a 3e
       -0.08179984 -0.07904012 0.06458252 0.16629125
0001e0 a5 91 d2 bd 93 15 bb bd 2a 68 8c 3d fa 3a 3a 3e
       -0.10281686 -0.09134974 0.06855805 0.1818656
0001f0 98 94 ad bd 41 83 77 bd 84 2a 87 3d 21 d7 0c 3e
       -0.08475608 -0.060427908 0.06599906 0.1375394
000200 58 5d 91 bd 7d 8f 8c bd 6f db 1f 3c 83 49 8f 3d
       -0.07097882 -0.06863306 0.009756907 0.06996443
000210 f6 c6 02 be 7f 9b f5 bd c6 d4 d9 3c 60 e1 00 3e
       -0.1277121 -0.11992549 0.026590716 0.12585974
000220 17 df 18 be 4d be 06 be 36 5e 13 3d 33 75 16 3e
       -0.14928852 -0.13158531 0.03597852 0.14693145
000230 6c e1 00 be 39 8d c1 bd e6 6c 22 3d e3 42 df 3d
       -0.12585992 -0.09450764 0.039654635 0.109014295
000240 c6 9e d0 3d 36 2f d5 3b 36 1e e4 bc 1f 4a 82 3d
       0.10186534 0.006505872 -0.027846437 0.06361794
000250 aa 3f 4d 3d f2 d6 d6 bd 6e 59 3a be 4e cc e6 bd
       0.050109543 -0.10490216 -0.18198177 -0.11269437
000260 1b 02 13 3d 04 95 18 be d6 70 8b be 20 fc 61 be
       0.03589068 -0.14900595 -0.27234524 -0.22068834
000270 03 bd 71 3d 76 99 c7 bd 9f 89 47 be d5 e1 2f be
       0.059018146 -0.09746067 -0.19486092 -0.17175992
000280 45 f0 88 3d 3a cf ca bc 29 40 46 bd 21 e2 47 3d
       0.06686453 -0.024757016 -0.04840103 0.048799638
000290 99 32 92 3c 3a 47 07 be 6c b2 49 be 4b ec 05 be
       0.017846392 -0.13210765 -0.19696969 -0.1307842
0002a0 ca 68 07 3c 21 51 2c be c3 dc 91 be fe 3c 69 be
       0.00826473 -0.16827823 -0.2848874 -0.22777173
0002b0 62 b6 42 3d 66 0e c2 bd 24 61 3a be 73 19 21 be
       0.047537215 -0.094754025 -0.18201119 -0.15732364
0002c0 f6 d7 33 3d f3 16 ea bc d3 b3 3d bd e2 6a 06 3d
       0.04390713 -0.028575396 -0.046314072 0.032816775
0002d0 b5 8a 8c ba cb c1 ef bd 38 ae 29 be 35 2f dd bd
       -0.001072249 -0.11706885 -0.16570365 -0.1080002
0002e0 89 94 58 3c 85 08 02 be 7f f2 61 be d0 aa 35 be
       0.013219007 -0.12698562 -0.22065161 -0.17740941
0002f0 57 31 85 3d 34 73 3d bd 8f fe db bd 8b f8 b7 bd
       0.065035515 -0.046252444 -0.107419126 -0.08982953
000300 6a 8e 6d 3e be 08 c8 be 87 6c 83 bd 99 e6 55 3e
       0.23198858 -0.3906917 -0.06417184 0.20888747
000310 69 c6 a5 3e c3 6e fe be 22 dd a6 bd f4 0d 98 3e
       0.32377937 -0.4969388 -0.081476465 0.29698145
000320 e1 cf a6 3e e7 ff 04 bf 26 0a a5 bd 25 57 92 3e
       0.32580474 -0.51952976 -0.08058576 0.2858211
000330 4c 8d 43 3e 97 f4 ec be bc 8d 64 bc 30 22 65 3e
       0.19096869 -0.46280357 -0.013949808 0.22376323
000340 f0 13 6e 3e e2 4b e4 be 0a 4a a8 bd 8e 35 7d 3e
       0.23249793 -0.44589144 -0.08217247 0.2472746
000350 35 24 bc 3e 60 2a 07 bf 35 23 9f bd 23 1e af 3e
       0.36746374 -0.52799034 -0.07770387 0.3420268
000360 05 48 c3 3e 66 4d 0d bf 7a 6f 8c bd 29 0a a1 3e
       0.38140884 -0.55196226 -0.068572 0.31453064
000370 7c cc 70 3e 13 ff f9 be 11 2e 08 bd 72 78 6b 3e
       0.23515505 -0.4882742 -0.033247057 0.22995165
000380 28 5d 34 3e 4a 60 c3 be d4 04 b9 bc 0a 8b 53 3e
       0.17613661 -0.381594 -0.02258531 0.20658508
000390 05 43 98 3e 56 cd ea be 05 d5 09 bd 90 fa 98 3e
       0.29738632 -0.45859784 -0.033650417 0.29878664
0003a0 9b 60 9a 3e 7b d2 fd be 73 62 6a bd dc 08 83 3e
       0.3015183 -0.49574646 -0.057222795 0.25592697
0003b0 41 09 2e 3e 43 49 dc be 2f 0c f1 bc 3b 13 15 3e
       0.16995718 -0.43024644 -0.029424755 0.14558117
0003c0 c2 1a 26 3d b8 1e 50 3d e5 c3 41 3d 68 d0 07 3d
       0.040552862 0.050810546 0.04730596 0.033157736
0003d0 37 a6 61 3d cc 83 62 3d 0b a5 46 3d 70 ca 13 3d
       0.055090155 0.055301473 0.04849724 0.03608173
0003e0 dc 14 82 3d bc f7 80 3d dd 59 4b 3d 04 3b 38 3d
       0.06351635 0.062972516 0.049646247 0.044978157
0003f0 46 a8 22 3d c7 b3 10 3d a7 6d c7 3c 48 96 cf 3c
       0.03971126 0.0353277 0.024344278 0.025340214

3.bias f4 [32]
000000 cd b6 0a 39 ce 90 b4 38 0b 99 e3 b8 cd 95 3c 38
       0.00013228804 8.610041e-05 -0.0001085271 4.4962206e-05
000010 93 44 4c b8 d7 09 02 38 3a f1 b4 38 8f 01 44 b8
       -4.8701255e-05 3.100358e-05 8.628001e-05 -4.6731493e-05
000020 c3 de f7 b7 93 bf 27 b9 84 b2 af b8 53 ba f3 37
       -2.9548426e-05 -0.00015997728 -8.3779014e-05 2.9054621e-05
000030 a9 f7 78 38 66 86 01 b6 1e ee 2b b8 42 a9 0c 39
       5.935846e-05 -1.9300728e-06 -4.099134e-05 0.00013414494
000040 cf 64 54 b9 73 cc 88 36 f1 f6 2d b9 d1 5c 0d 38
       -0.0002025545 4.076917e-06 -0.00016590559 3.370346e-05
000050 7b f7 ad 38 84 29 20 b8 70 0c ec 38 07 d6 2f b8
       8.29538e-05 -3.8185637e-05 0.000112556736 -4.192258e-05
000060 ed da 77 37 c7 1c 1a 39 16 cf 40 38 ff 40 b7 38
       1.477332e-05 0.00014697305 4.596923e-05 8.7382265e-05
000070 8f 71 93 37 82 8e 5b b9 3a 19 0e b9 6b 03 e1 38
       1.7576645e-05 -0.00020938556 -0.00013551573 0.00010729473

3.weight f4 [32, 16, 4, 4]
000000 74 ca 2a bd 58 26 a6 bd eb 28 e4 3c c3 ad 3c 3d
       -0.04169698 -0.08112782 0.027851542 0.04606415
000010 cf 21 78 3d 25 6c 12 bd 77 47 c7 bc c7 e6 67 3d
       0.060579117 -0.035747666 -0.02432607 0.05661657
000020 da b1 55 3e ef 44 50 3d 77 31 18 bd 14 78 b6 bb
       0.20868626 0.05084699 -0.03715655 -0.0055685136
000030 1e a7 0a 3e 5c 8d c5 3d 19 50 ad 3b e1 10 7c 3c
       0.13540313 0.09646103 0.0052890894 0.015384884
000040 cb 52 9d 3c 6f ee 52 be a0 ee 5c be 61 f5 8d bc
       0.019204518 -0.20598768 -0.21575403 -0.01732892
000050 3b 73 86 3e 36 53 36 3b 0f ac 38 be ba 54 5c bd
       0.2625979 0.0027820594 -0.18034385 -0.05379174
000060 86 e3 48 3e 10 bd 87 3e 73 d3 40 bd a7 35 ce bd
       0.19618043 0.2651143 -0.047076654 -0.10068827
000070 39 d7 4f bd 4c 8c 0b 3e 4d 4b b9 3d 12 ce 95 3d
       -0.05074236 0.13627738 0.090475656 0.073146954
000080 e4 0b 61 bd 1c 26 9d bc af 86 a3 3d d6 62 33 3d
       -0.05494298 -0.019183211 0.07984673 0.04379543
000090 1f 47 ce bc e5 ae 82 bd 55 ab 97 bc 72 22 60 3d
       -0.025180398 -0.06381015 -0.018514315 0.05472035
0000a0 52 bb 22 3d 28 82 33 bd 74 69 93 bd f5 0e da bc
       0.039729424 -0.0438253 -0.07197848 -0.02661846
0000b0 98 8e 75 3d d1 5d a9 3c 46 89 22 bd eb 45 9b bd
       0.05995044 0.020674618 -0.039681695 -0.07581695
0000c0 4e 22 88 3c e8 01 12 3e 36 74 13 3d 65 ab 3d bd
       0.01661792 0.1425854 0.0359995 -0.046306033
0000d0 54 99 ae bd ae ab d6 3c 49 98 0e 3e da 5b f9 3c
       -0.08525339 0.02620491 0.1392528 0.030439306
0000e0 e7 2f 3f bd 0a f2 b0 bd bf c7 b1 3c 7a c7 e5 3d
       -0.046676543 -0.08639915 0.021701692 0.11219688
0000f0 d7 04 00 3d 2e 70 bf bd 6e 72 06 be 9e db 01 3c
       0.031254616 -0.093475685 -0.13129589 0.007925896
000100 7c ff 52 bd fd 01 00 3d 69 5a 8b 3c 53 fa 06 bc
       -0.05151318 0.031251896 0.017010884 -0.008238393
000110 fc 2c 5a bd 01 35 2d bd 3c be 41 ba 20 37 bd 3a
       -0.053265557 -0.042286877 -0.0007390713 0.0014435984
000120 c6 0a e9 bc 9d fc 97 bd 19 a8 c5 bd 31 9a d9 bc
       -0.02844752 -0.07421229 -0.09651203 -0.026562782
000130 35 68 29 bc 17 67 bb bd 2e e6 bd bd 76 8a 0a be
       -0.010339786 -0.09150522 -0.09272419 -0.13529381
000140 c7 fd 57 bb 83 98 ec 3b ac 4e 0d 3c f1 5d 16 3b
       -0.003295766 0.0072203293 0.008624714 0.0022944177
000150 6d 3c d4 bb bf 19 c5 bb eb 31 f7 3b b2 c9 1c 3c
       -0.00647693 -0.006015032 0.0075437925 0.009569572
000160 61 8a 0b 3c 6e 64 b7 bb 52 f8 c5 bb 4a 1d 00 3c
       0.008516879 -0.005596689 -0.006041565 0.007819483
000170 8c a2 44 3c 36 a0 77 bb ba 49 4f bc 08 e7 27 bc
       0.012001645 -0.0037784702 -0.012651855 -0.010247953
000180 84 61 4a 3c 4b 36 15 3d b9 3e 8e 3c 6f ea c9 bc
       0.012352351 0.03642873 0.017363893 -0.02464792
000190 26 94 bc 3c 26 b0 3b 3d cd 38 01 3d 18 84 02 bb
       0.023019861 0.045822285 0.03154831 -0.001991516
0001a0 90 b3 18 3d f9 5c 48 3d 5c ae a3 3c 73 4e b1 bc
       0.03728062 0.04891679 0.019980602 -0.021643853
0001b0 a3 23 ab bb 7e 1c df b9 ec 42 3f bb 95 5c f4 bc
       -0.005222754 -0.00042555103 -0.0029184176 -0.029829303
0001c0 09 f7 3c bd f3 70 92 bc 24 27 df 3c 08 a6 d5 3d
       -0.04613403 -0.017876124 0.027240343 0.104320586
0001d0 64 39 b7 3d da a7 2f bc 30 4a dc bc ca 4f 11 3d
       0.08946493 -0.010721171 -0.026890844 0.035476483
0001e0 a6 ed 5e 3d 08 11 96 3d e8 21 ae 3c 26 3e d8 bc
       0.054425858 0.07327467 0.021256402 -0.026396822
0001f0 36 82 be 3c 08 f4 de 3d a2 fe 39 3d 5d f8 35 bc
       0.023255449 0.10886389 0.045408852 -0.011106578
000200 6e dc 4a bd dc 7b 0f bd 3a f3 ed bb 46 40 99 bd
       -0.049526624 -0.03503023 -0.007261661 -0.07482962
000210 60 ea ea bc d2 3a 86 bd ec be dd bc 95 d1 b4 bd
       -0.028676212 -0.06554188 -0.027068578 -0.08829037
000220 7f f1 df bd f4 76 c1 bd f9 16 6b bd 03 9a ae bd
       -0.109347336 -0.09446517 -0.057394955 -0.08525469
000230 fd 08 9e bd 4c f4 08 be a3 19 ef bd d1 5c a3 bd
       -0.07716558 -0.13374442 -0.11674812 -0.07976688
000240 ed 56 b1 3c 51 93 28 bd 35 58 58 bd da f2 57 3c
       0.021647895 -0.041156117 -0.052818496 0.013180459
000250 90 da 8e 3d bc c8 fa 3c 40 fe 04 bd 28 ee e9 bc
       0.06975281 0.030613296 -0.032469034 -0.028555945
000260 fa 19 bf 3c 24 1e 76 3d 54 cc 39 3c 81 c2 5d 3b
       0.023327816 0.060087338 0.0113402195 0.0033837857
000270 b0 77 4d bd 73 95 86 3c 8c 80 2b 3d b9 da 0b 3d
       -0.05016297 0.016428685 0.04187064 0.034144137
000280 6a 77 b5 be f7 9f 9c bd 2c 61 54 3e 0f e5 43 3e
       -0.35442668 -0.076476984 0.20740193 0.19130348
000290 38 7d 48 be e6 b9 98 be b5 b9 12 be 5e a6 f1 3d
       -0.19579017 -0.2982933 -0.14328654 0.1179931
0002a0 4f e6 99 3d 07 09 07 be 02 5b 3c be be f7 b1 bd
       0.07514631 -0.13187037 -0.18394092 -0.08689831
0002b0 a2 78 59 3e da 25 23 3d 7e 98 2e be bd d4 b7 be
       0.21237424 0.03983102 -0.17050359 -0.35904494
0002c0 5a 05 6d 3e a8 ec f8 3d ca b2 b9 bd 89 3f 03 be
       0.23146573 0.121545136 -0.090673044 -0.12817205
0002d0 2a ce 96 3d 4b 5c b8 3e bb f2 91 3c 71 9e 44 be
       0.073635414 0.36007914 0.017815938 -0.19201066
0002e0 a0 5b 5c be b9 58 88 3d 92 72 d7 3d 53 6b 07 be
       -0.21519327 0.066575475 0.105198994 -0.13224535
0002f0 9a 3f 6a be ec 63 78 be 89 47 43 3c 8c a0 21 bd
       -0.22875825 -0.24256867 0.011918911 -0.03945975
000300 da 16 d3 3b d8 54 d6 bc d3 8f 79 bd 40 6e 5a bd
       0.006441933 -0.026163504 -0.060928177 -0.0533278
000310 ce c6 27 3b a0 76 2b 3b 14 2d b7 bc 63 92 5e bd
       0.0025600675 0.0026163235 -0.022360362 -0.054338824
000320 a5 61 de 3c e9 6c c3 3c cd 7e 69 bb 25 33 bd bc
       0.02714617 0.023855643 -0.0035628558 -0.023095677
000330 f6 9b bc 3c 60 31 b1 3c f3 db a8 3c b9 00 d2 3c
       0.023023587 0.02162999 0.020612692 0.02563511
000340 71 73 a1 37 38 7e 4b 3d fd f3 6a 3c d5 38 35 bd
       1.9246452e-05 0.04968092 0.014340398 -0.044243652
000350 7a 57 1e bb 2c 74 c5 3d 81 99 68 3d f9 58 1a bd
       -0.0024161027 0.09641299 0.056787018 -0.037682507
000360 b3 e7 59 bc 3c 53 97 3d 38 af 8c 3d 6b 5a ea 3c
       -0.01329987 0.073889226 0.06869358 0.028607568
000370 f8 7f 8f bc 42 d3 e1 3c 6c 53 6f 3d db 06 98 3d
       -0.017517075 0.027566556 0.058429167 0.074231826
000380 56 6a 35 3c 74 bb 80 b9 5f 38 a3 ba f8 b0 fe 3b
       0.011072716 -0.00024553726 -0.0012452713 0.007772561
000390 bc bc 5d 3c 74 6c 1b 3c 81 42 bb 3a 59 8c c0 3a
       0.013533767 0.009486306 0.0014286787 0.0014690264
0003a0 67 8e 5f 3c 59 57 08 3c 9e 9d f6 3b d7 e6 f4 3b
       0.013644791 0.008321607 0.0075261137 0.0074738073
0003b0 3d 4d 80 3b 33 25 36 3c 67 45 58 3c 88 65 87 3c
       0.0039154575 0.011117267 0.013200141 0.016527906
0003c0 ba 6d 21 3d 08 c0 48 3e 58 be 09 3e 71 c1 87 bd
       0.039411284 0.19604504 0.13451517 -0.06628693
0003d0 31 e7 39 be 72 49 77 3c c7 81 4a 3e 69 8c 17 3e
       -0.18154599 0.015093194 0.19776069 0.14799656
0003e0 49 72 2f be 06 2c 1a be e6 ef 0b bd a7 a6 14 3e
       -0.1713344 -0.15055856 -0.03416433 0.14516698
0003f0 43 b6 9a 3d 1c 97 10 be 9f ac 84 be 28 5b 6c bd
       0.07554295 -0.14120144 -0.2591295 -0.05770412

6.bias f4 [100]
000000 11 b7 82 38 cf 27 6e b9 f2 9d 4f 2b 87 19 59 39
       6.232982e-05 -0.00022712279 7.3760366e-13 0.00020704242
000010 21 cc 96 38 24 98 b9 38 dd 4d ba 31 01 43 84 b8
       7.190579e-05 8.849826e-05 5.4221645e-09 -6.306731e-05
000020 af c0 0e 39 7b ba 3c 39 bd 0d 07 b9 82 f2 0a b8
       0.00013613956 0.00017998547 -0.00012879721 -3.3127617e-05
000030 55 3b c2 38 5c 00 00 00 8d 6b bc 38 58 52 5d 39
       9.261692e-05 1.29e-43 8.9845715e-05 0.00021106878
000040 1d 49 f3 b8 c4 4a 26 b8 e5 36 4b 38 ae 4d be 38
       -0.00011600761 -3.9647115e-05 4.8450096e-05 9.074375e-05
000050 86 ab fa b8 80 9f e3 b6 30 8f ba b7 b8 05 17 38
       -0.00011952878 -6.7836954e-06 -2.2239605e-05 3.600653e-05
000060 66 4a 01 38 5c 56 6b b9 56 74 37 38 f9 5a f8 b6
       3.0825286e-05 -0.00022443518 4.3738946e-05 -7.4015666e-06
000070 64 a6 53 37 d0 f9 a2 38 51 e4 24 b6 1d 20 9d 38
       1.2615321e-05 7.771293e-05 -2.4570802e-06 7.492325e-05
000080 30 74 11 b9 6a cf 62 39 59 a8 26 b9 82 e8 f2 b5
       -0.00013871561 0.00021630307 -0.00015893708 -1.8098074e-06
000090 a8 ef a2 38 c0 bc 3e b5 9e 5b 50 39 9f aa e2 38
       7.7694014e-05 -7.1055183e-07 0.00019870556 0.000108083004
0000a0 8d 54 c1 b8 08 5c 9a 38 ee b2 95 b8 c3 9c 8f b8
       -9.218706e-05 7.3604344e-05 -7.138202e-05 -6.8479705e-05
0000b0 38 4f a8 b8 39 15 37 37 68 3a b7 37 1f 5f b2 37
       -8.02562e-05 1.0912591e-05 2.1842498e-05 2.1263548e-05
0000c0 23 ee 88 39 67 72 ed b8 58 86 a2 b8 ba e2 05 b9
       0.00026117367 -0.0001132235 -7.7497854e-05 -0.0001276833
0000d0 f9 25 55 b8 55 49 da 26 48 f4 91 37 69 42 4d b9
       -5.0818522e-05 1.5146665e-15 1.73991e-05 -0.00019575063
0000e0 58 08 04 b9 0d 91 3a b9 59 59 40 39 f3 93 8c b8
       -0.00012591609 -0.00017792378 0.00018343831 -6.703278e-05
0000f0 b7 f4 2b 38 d1 14 06 b9 1b a3 e4 37 b7 09 df 38
       4.0997485e-05 -0.0001278699 2.725567e-05 0.00010635278
000100 2c bf 81 39 a6 c4 21 b8 00 1a 07 b8 00 ec 06 b8
       0.00024747232 -3.8568534e-05 -3.2210723e-05 -3.216788e-05
000110 09 02 4c b9 6c 78 cb a1 03 96 ad b7 fb 5e ea 38
       -0.00019455714 -1.378769e-18 -2.0693062e-05 0.00011175681
000120 79 b0 01 b8 2c 52 03 38 07 3a 43 39 1e 48 13 b9
       -3.092035e-05 3.1309362e-05 0.00018618266 -0.00014045878
000130 2e 5c 79 38 8b 57 09 39 ff 3b 6c b8 eb 99 12 39
       5.9452075e-05 0.0001309795 -5.632266e-05 0.00013980984
000140 d4 48 5b 39 c9 b2 97 b7 8c 37 c3 b6 c5 78 92 38
       0.00020912598 -1.8083856e-05 -5.8179194e-06 6.9843176e-05
000150 02 2f 9d b7 b1 1e e4 37 5b d8 89 b9 9f f2 c8 38
       -1.8737748e-05 2.719401e-05 -0.00026291874 9.581935e-05
000160 c1 1c 1e 38 ea e7 37 b8 59 23 34 b8 4b 49 63 b8
       3.7696915e-05 -4.3846587e-05 -4.2948264e-05 -5.4189277e-05
000170 6b 65 30 39 4f c4 ae a4 5a 90 18 b9 c2 38 c8 39
       0.00016822449 -7.579303e-17 -0.00014549625 0.0003818926
000180 f7 59 41 b9 c9 3d a5 38 77 19 7f 38 85 8f 85 38
       -0.00018439429 7.8793215e-05 6.0820454e-05 6.368667e-05

6.weight f4 [100, 1152]
000000 57 44 7f 3a 16 7a 91 bc 16 1b 33 bb 0a d1 f5 3c
       0.00097376615 -0.01775841 -0.0027329377 0.030006904
000010 d7 27 66 bb 5c 76 46 3c fb bc 74 bc 2f 59 2e bc
       -0.0035118961 0.01211318 -0.014937635 -0.01064138
000020 b6 d3 49 bb e3 92 f4 b9 f6 36 0c 3c 2e 9a d2 bc
       -0.0030796356 -0.00046648746 0.008558026 -0.025708284
000030 7f 0d 4d 3d 77 d7 a9 bb db 85 37 bd 29 1e 9b bc
       0.0500617 -0.005183156 -0.04480539 -0.01893528
000040 24 f7 50 bb 60 f5 39 bc ba 46 11 b9 69 ad 21 bc
       -0.0031885589 -0.011350006 -0.00013854625 -0.009868004
000050 81 f8 9b bb 58 dd 3c 3c fa fd 39 bb 77 1c 65 3d
       -0.0047598486 0.011527382 -0.0028380142 0.05593535
000060 5f 0f 88 bc ec 23 3d bc 97 77 cd 3a 8b 1c dd bc
       -0.016608892 -0.011544209 0.0015675899 -0.02699115
000070 5e d0 3e bb b9 60 8e 3c a6 45 52 3c fe 72 a2 bc
       -0.0029115896 0.017380105 0.012833988 -0.019830223
000080 b7 35 89 3c 14 e7 03 3d de 7c 9f b9 78 6c 82 bc
       0.016749246 0.032202795 -0.00030419877 -0.015920863
000090 11 ae e6 3b 24 24 37 bc 6d cd 85 3c b9 60 09 bd
       0.0070397933 -0.01117805 0.016333306 -0.033539508
0000a0 fa 7f c7 bc 41 e6 1a 3d 83 68 b5 3c 2f d5 4a bc
       -0.024353016 0.037817243 0.022144562 -0.0123799285
0000b0 8e c5 c8 bb f1 13 eb bc fc e4 c5 3c 48 19 39 bc
       -0.006127066 -0.028696032 0.02415704 -0.011297531
0000c0 36 53 af 3c 96 e8 b5 bc 4e c5 d3 bc a8 bd c0 ba
       0.021401983 -0.022205632 -0.025850918 -0.001470496
0000d0 b2 c6 a8 3c a0 46 12 3c 6b c3 86 3c a2 f5 1d 3d
       0.020602558 0.008927971 0.016450604 0.03856433
0000e0 44 64 ad 3b c5 e5 d1 bc 10 66 02 bc 82 b8 83 3c
       0.0052914936 -0.025622258 -0.007958904 0.016079191
0000f0 eb 09 50 3c ef a4 cb 3c 5c f0 9f 3c fc 63 22 bb
       0.012697677 0.02485892 0.019523792 -0.0024778834
000100 e2 0f 03 3c dc 1e 4c 3d 2b a0 ca 3c 37 4c f0 3c
       0.007999392 0.049834117 0.024734577 0.029333217
000110 2d 52 b9 3c ac 50 39 3b 53 df 20 3d ca a9 9f 3c
       0.022622192 0.0028276844 0.03927548 0.019490141
000120 e1 60 62 bc e9 7a 01 bd 38 c4 b4 3b d6 41 11 bc
       -0.013817043 -0.031611357 0.005516555 -0.008865794
000130 00 b3 2c bc b1 b9 e8 bb 52 b5 02 3b ab 6c 20 bd
       -0.010540724 -0.0071022143 0.00199445 -0.039166134
000140 01 20 9d bc 9c d1 8a 3d 39 de 89 3c 36 b9 dd 3b
       -0.0191803 0.06778261 0.016829597 0.0067664636
000150 1a a3 e7 bc dd b7 e5 bc 61 4d b8 3b 8e e6 00 3c
       -0.028276015 -0.028041774 0.0056244587 0.0078674685
000160 c2 4c b0 ba 13 ab 9e bb 5d e3 f6 bc 9d 0b a4 bc
       -0.001345061 -0.004842171 -0.030137712 -0.020025069
000170 9f eb 48 bc 7e b2 80 3b bd 8d fb 3b b1 7b cf bb
       -0.012263208 0.003927528 0.0076768086 -0.006331884
000180 94 0f 36 3b b6 bf b2 3c 11 12 80 bc c2 d6 19 3c
       0.0027780281 0.02181993 -0.015633615 0.009389581
000190 6a 5d 58 3c 99 5e 83 bc fc de 03 3c 3a ec 20 3a
       0.013205865 -0.016036319 0.008048769 0.0006138716
0001a0 1b 6a 35 bd a0 7f 0f bd 8a 0b 90 bd 8d 1d 1a bd
       -0.044290643 -0.035033822 -0.07033451 -0.037625838
0001b0 73 6e d2 3c 4d b0 0a bd da 2a 49 bd 96 6f 5e 3c
       0.025687432 -0.03385954 -0.049113132 0.013576409
0001c0 87 cd ce bb 2d 6d 05 3d b2 7d f7 ba 5b ba 66 3c
       -0.006311122 0.03257482 -0.0018882065 0.014082517
0001d0 58 e9 36 3d 7f d6 71 3d bd a7 a8 3c 13 94 8d 3c
       0.044656128 0.05904245 0.020587796 0.017282521
0001e0 48 39 10 bc 2a de 9f bc 33 32 16 ba 56 b0 05 3d
       -0.008802719 -0.019515116 -0.0005729526 0.03263887
0001f0 31 91 36 3d 2c b9 1e 3d 5f 36 8f bc 7b b5 9a bc
       0.04457206 0.038750812 -0.01748198 -0.018885365
000200 eb 30 3f 3d 17 6e 7b 3d 71 ff 02 3d 14 d8 89 3b
       0.04667751 0.061384287 0.03198189 0.0042066667
000210 f8 92 25 3c 12 00 be bc ec 65 98 bc 61 ed 5b 3c
       0.010105841 -0.023193393 -0.018603288 0.013423295
000220 1b 64 44 3c 30 a8 52 bc 66 4e 07 bd 80 46 a9 bc
       0.011986758 -0.012857482 -0.03303375 -0.0206635
000230 54 fa c9 bb b8 98 76 bc 81 18 a2 bc 2e af 62 bd
       -0.0061638746 -0.015051059 -0.019787075 -0.055342846
000240 d1 f2 96 3c 92 af 3a bd 34 e4 e5 3c 93 a5 c5 3c
       0.01842633 -0.045577593 0.028062917 0.024126804
000250 71 76 fb bc ad b4 85 3a b8 6d 71 bc 41 bc 6b 3d
       -0.030696126 0.001020094 -0.014735632 0.05755258
000260 53 2e 8d 3c 37 a5 62 bc 22 56 8c bc 68 0a 26 3d
       0.017234003 -0.013833336 -0.017130915 0.040537268
000270 21 ca 71 3b c0 08 99 3a 60 ca c1 bc e9 1d 54 bc
       0.003689416 0.0011675581 -0.02365607 -0.012946584
000280 17 19 14 3d 00 00 9b ba ff 75 64 bc cc b1 bd 3b
       0.03615674 -0.0011825562 -0.013944148 0.0057890173
000290 00 b3 d3 3b bf d7 1f 3c bc 5a b2 bc 51 94 81 3c
       0.0064605474 0.009756028 -0.021771781 0.015817793
0002a0 88 0d 10 bd a3 c5 6d bc 8b 55 8f bb 6a a1 92 bb
       -0.035169154 -0.014512452 -0.004374211 -0.0044748085
0002b0 eb 32 a3 bb 5f 91 c7 bc e5 f6 cb 3c 17 b6 9d 3c
       -0.004980435 -0.02436131 0.024898002 0.019251866
0002c0 8a 44 dc bb 4e b8 02 3d d9 0f 15 3c b5 11 2d 3d
       -0.0067220377 0.031914048 0.009098017 0.042253215
0002d0 22 8b 27 bc 3c 08 87 bc 5b 81 dd bc ec 1f b8 ba
       -0.010226043 -0.016483419 -0.02703922 -0.0014047599
0002e0 ae c3 35 3b ec 8c 67 bd 39 ab a7 3c 8b da c8 3c
       0.0027735042 -0.056530878 0.020467388 0.024518272
0002f0 ba cb f5 bb c1 dc 85 3d 0a 3c 1c bd 51 d5 3e bd
       -0.0075010927 0.06536246 -0.038143195 -0.046590153
000300 5f 11 a4 3c 60 57 9b 3c d1 e1 fe 3c 00 5a 36 3d
       0.020027814 0.018962562 0.031113537 0.044519424
000310 25 e6 69 3d 15 be 44 bc 62 ef 95 ba 73 91 e6 3a
       0.05710425 -0.01200821 -0.001143914 0.0017590955
000320 15 05 d0 bb 7d 8b 2c 3d 76 36 cd 3c 2f dc 04 3d
       -0.006348262 0.042125214 0.025050383 0.032436546
000330 99 24 94 3c c2 a9 84 bc 72 ec 58 3c 2c 39 9d 3b
       0.018083857 -0.016194228 0.013239967 0.004798075
000340 9c ce d5 ba 9d a7 08 3b 15 03 05 bc f7 0f 3c 3c
       -0.0016312185 0.0020851858 -0.008118411 0.011478416
000350 37 05 81 3c c9 0f db 3c c1 0b 5d 3c cb ab 4f 3c
       0.015749557 0.026740925 0.013491572 0.012675236
000360 02 6b 6f 39 0f a6 56 3c 4d 4e ed 3c 07 b8 56 bc
       0.0002283268 0.013101115 0.028968 -0.013105399
000370 a1 f0 00 bd 43 a2 46 bd 37 ea d4 bc 87 d3 d3 bc
       -0.03147948 -0.04849459 -0.025990589 -0.0258577
000380 6a 12 05 bc 32 57 bc ba 0f d6 05 3c a0 d0 05 bd
       -0.008122066 -0.0014369248 0.008168711 -0.032669663
000390 05 3b a8 bb 25 16 96 3a 2a cb ab bc 2c 36 49 bc
       -0.005133989 0.0011450691 -0.0209709 -0.012280982
0003a0 c1 a9 0c bc 40 91 b2 ba d7 de 9b bc ed d9 0e bd
       -0.008585394 -0.001362361 -0.019027157 -0.0348758
0003b0 80 cf 6d 3c 15 e9 39 bc 7a 44 e2 3c c7 97 35 3a
       0.014514804 -0.011347075 0.027620543 0.00069272186
0003c0 83 67 c7 ba a2 7b 86 3b 76 f7 b8 3c b9 99 29 bb
       -0.0015213344 0.0041040936 0.022578936 -0.002587898
0003d0 fb fe 99 3b 39 87 2d 3b a6 95 37 bd ce 43 99 bc
       0.0046995855 0.0026478304 -0.04482045 -0.01870909
0003e0 20 44 37 bd d7 96 94 3a 83 67 15 bd 82 93 be bb
       -0.044742703 0.0011336458 -0.03647567 -0.005815924
0003f0 66 e1 23 3b 27 42 10 3c 37 ba ae 3c ca be e7 3c
       0.0025006174 0.008804834 0.021329029 0.028289218

8.bias f4 [10]
000000 f0 26 84 b8 3e a7 3a b8 64 3a 8e b6 eb 7a 99 38
       -6.301503e-05 -4.4501612e-05 -4.2387273e-06 7.318504e-05
000010 22 f1 29 38 5a 9b 60 b8 a5 e0 77 b7 b8 81 9f 37
       4.0517312e-05 -5.3550444e-05 -1.4774651e-05 1.9014682e-05
000020 9b 5b a2 b8 4c 5c aa 38
       -7.741825e-05 8.123423e-05

8.weight f4 [10, 100]
000000 ae 85 af bc 98 93 c5 3c 9b 42 80 b9 83 5f e1 3e
       -0.021426048 0.02411823 -0.00024463687 0.44018182
000010 8c 04 51 3e e1 a4 1b be 69 e9 85 38 fe a6 d7 be
       0.20411891 -0.15199615 6.38541e-05 -0.42119592
000020 46 14 ef bd 8e ab 4c 3d 5b ba 7a 3d ec 74 b6 3e
       -0.11673789 0.049968295 0.06121288 0.3563608
000030 7d bb 76 be 72 5b dc 37 95 dc 11 bf 95 c0 9c bd
       -0.24094959 2.6268626e-05 -0.56977206 -0.076539196
000040 fb b8 87 3e 9d ad 01 3e 24 20 b7 3e 7b b8 1e 3e
       0.26508316 0.12663884 0.3576671 0.15500061
000050 f4 0b 96 3e a5 ab c3 3d 2e d2 69 3e b1 33 3b be
       0.29305995 0.09554223 0.22834083 -0.18281437
000060 6d 96 8f 3e 68 a8 13 be 3d 17 ba be 3d 89 8f be
       0.28044453 -0.1441971 -0.36345854 -0.28034392
000070 5c 2e f4 bd f8 4a ac be 0d c1 24 be f2 b4 2e 3e
       -0.11922905 -0.33650947 -0.16089268 0.17061213
000080 12 73 7d 3e af d9 78 3e f8 ea a7 3e bf e6 93 3e
       0.24750927 0.2430179 0.32796454 0.28886983
000090 cf da 62 be 3a 49 4e 3d ab e5 0f be 52 b5 21 3d
       -0.22153781 0.050362803 -0.14052455 0.03947956
0000a0 96 b4 3b be 20 e0 93 3d 42 d9 9d be 74 20 b7 bd
       -0.18330607 0.07220483 -0.30829817 -0.08941737
0000b0 0e 36 d3 3d 7a 17 06 be cc 8b db be cd b2 94 3e
       0.103130445 -0.13094893 -0.42880094 0.29042664
0000c0 25 da 4a 3e 3f fa fc 3e e1 88 1d bf ba 99 9f be
       0.19809778 0.49409673 -0.61536986 -0.31171972
0000d0 d2 07 68 3e aa 9b 3e af d6 71 00 bf f9 1c f8 bc
       0.22659233 -1.7335702e-10 -0.501737 -0.030287253
0000e0 a8 47 4d 3e d1 f9 10 3e 9e 33 bd bb d7 6d 3c 3d
       0.20046866 0.14157797 -0.0057739755 0.04600319
0000f0 b8 fc ac 3e 5e 42 36 3e 42 e5 20 3e 18 17 8c bd
       0.3378656 0.17798755 0.15712455 -0.06840342
000100 1e 89 c5 be 95 a4 2a be 37 af 57 be 23 61 14 3e
       -0.38581175 -0.16664346 -0.21062933 0.1449018
000110 4d 87 a1 3e eb 7e 4e b6 af 1a 0c 3c 52 9d 09 3e
       0.3154854 -3.0770268e-06 0.008551284 0.13438919
000120 32 8e 01 3e 3f c0 5c 3e 8c a5 01 3e 95 30 b5 3e
       0.126519 0.21557711 0.12660807 0.35388628
000130 d5 b4 c0 3d 56 29 46 bd 97 75 4c be 84 c8 fb 3d
       0.09409491 -0.048379265 -0.19966732 0.12294105
000140 d5 e1 3b bd 27 56 3b 3c ea 27 e5 3e d7 db 90 be
       -0.045869667 0.011434115 0.44757015 -0.28292724
000150 82 07 ad be bd 00 6d 3e 4b ea a2 3e f5 26 1c be
       -0.3379479 0.23144813 0.31819376 -0.15249236
000160 8e 9d 31 bd 92 4e 51 3e 9b 72 ee bd eb e1 1c be
       -0.043363146 0.20440128 -0.11642953 -0.15320556
000170 c1 d5 94 be 56 a9 71 b9 31 35 de 3d f3 71 eb 3b
       -0.2906933 -0.00023046634 0.10849989 0.0071852147
000180 54 20 29 3e 91 60 ff 3e 48 5c c3 be aa 5b ce bb
       0.16516238 0.49878362 -0.38156343 -0.0062975483
000190 54 40 25 3d 10 62 c9 3d 19 02 0f 2c b0 62 35 be
       0.04034455 0.09833157 2.0322687e-12 -0.17713428
0001a0 4e 2d 2b be 12 93 89 be ac 82 70 b8 7f 2e f9 3d
       -0.16716501 -0.26870018 -5.7342157e-05 0.121670716
0001b0 2f f9 4c be 02 90 10 bf 50 be 8e 3e 65 63 85 3d
       -0.20016931 -0.5646974 0.27879572 0.065130986
0001c0 e7 c9 26 3e 52 71 c9 af 16 80 57 bc 05 86 53 3c
       0.16287957 -3.6642206e-10 -0.013153097 0.012910371
0001d0 74 40 9f be 84 bc 0c bf 0e 34 9f 3e fd cb 89 be
       -0.3110386 -0.5497515 0.31094402 -0.26913443
0001e0 cb 95 2a 3e 05 01 93 bc fc 3f 84 3e be 1c d0 3d
       0.16658704 -0.017944822 0.25830066 0.10161732
0001f0 e8 5d 4c 3e 00 a1 16 3e ae 98 4f be fd a4 e6 be
       0.19957697 0.14709854 -0.20273086 -0.4504775
000200 9c 33 56 bd 40 9b 3c 3e 28 53 51 3e 8a 88 4c 3d
       -0.052295312 0.18418598 0.20441878 0.0499349
000210 5f 72 6f 3d 13 8d e9 3c cd 13 fd 3d 64 5f d8 be
       0.058458682 0.028509652 0.12357292 -0.42260277
000220 e9 76 1d be 5e 86 f3 3c 15 00 aa be 8a 19 c2 bd
       -0.15377392 0.029727157 -0.33203188 -0.094775274
000230 ab 27 76 3e 5e 15 6a 3e d7 18 94 3d c1 a2 db 3e
       0.2403857 0.22859713 0.072313 0.4289761
000240 97 79 12 be de 06 8e 3e 51 ed a0 be b0 3f f4 bd
       -0.14304195 0.27739614 -0.31431058 -0.1192621
000250 1f 36 0f 3e 44 9d b7 be 45 bb d2 3d f6 ee 02 3f
       0.1398549 -0.35862172 0.10289625 0.51145875
000260 aa fd ab 3d 23 c7 13 ae 3c 0b d4 3e ea f8 2c 3d
       0.08397992 -3.36008e-11 0.4141482 0.04222957
000270 02 50 9d ba 10 27 7c 3e c1 90 9f be 94 5b d1 3e
       -0.0012001994 0.24624276 -0.31165126 0.4089018
000280 d4 c3 94 3d 90 95 8f 3d 35 b4 3e 3e 05 65 3c bd
       0.07263914 0.07010949 0.18623431 -0.045994777
000290 00 d3 41 bb 3b 7a 8e 3e 6a c6 10 be 41 90 5c 3e
       -0.0029575229 0.2782763 -0.14138189 0.21539403
0002a0 b4 9f 91 bc b8 de 02 b4 a6 45 12 bf 6c e3 9a be
       -0.017776348 -1.2188218e-07 -0.57137525 -0.30251634
0002b0 e3 9a db be 48 6d b8 3e 4a ce 4a be 1a 99 9b be
       -0.42891607 0.36020875 -0.19805256 -0.30390245
0002c0 a0 e7 4d 3d a8 26 93 bc d8 ac 71 be a9 29 33 be
       0.050269723 -0.017962769 -0.23601091 -0.17496361
0002d0 50 ad 82 be 07 a4 24 bc 31 b3 98 be 4a 21 52 3e
       -0.25522852 -0.010048873 -0.29824212 0.20520511
0002e0 98 6b b6 3b 9f 1e fc 3b 19 cc 93 be b6 c5 35 3d
       0.0055670254 0.00769408 -0.28866652 0.044378005
0002f0 be 68 d0 3c d3 de 85 3e 6c ae 7e 3e ca 62 2d be
       0.02544057 0.26146564 0.24871224 -0.16932216
000300 3c 28 31 be 1d e5 9a b5 16 e9 5e 3e 56 88 d1 3d
       -0.17300504 -1.1540575e-06 0.21768603 0.10231082
000310 1e 32 26 3e c0 dc f1 bd f0 49 41 3e ed 37 e7 3d
       0.16230056 -0.11809683 0.18875861 0.11289964
000320 25 39 99 3e 9d f4 85 be 25 23 97 37 fc 12 3a 3c
       0.2992641 -0.26163188 1.8016968e-05 0.011357065
000330 65 e7 d0 3e 6b 5f 68 3d 5d ae 86 b6 1c 68 0b be
       0.4080154 0.056731623 -4.0138098e-06 -0.13613933
000340 8a d7 39 be 89 9f 9c 3e 27 0f 43 be 69 77 5b bd
       -0.18148628 0.30590466 -0.19048749 -0.053580675
000350 64 40 98 be ad 36 a7 b4 80 75 6f 3e 15 2d a7 bd
       -0.29736626 -3.1145956e-07 0.23384666 -0.081628956
000360 93 16 29 3e 72 09 a7 be ca 79 c1 be 0b 92 bc 3d
       0.16512518 -0.32624394 -0.3778823 0.09207543
000370 6f e9 38 be 53 8a 0f be 6d df 84 be e4 4d fb 3e
       -0.18057798 -0.1401761 -0.2595171 0.49082863
000380 41 4d 17 bd d4 92 95 bd 44 a6 04 bd 0e a2 49 3e
       -0.03693891 -0.07303396 -0.032385126 0.19690725
000390 26 fc a5 be 84 2d 1c 3d f2 b2 c8 bd 40 f4 d3 3d
       -0.32418936 0.038129345 -0.09799756 0.10349321
0003a0 ed c6 d9 3e a3 9f 8e be 8c eb 01 bf 98 29 af 3e
       0.4253458 -0.27856168 -0.5075004 0.3421142
0003b0 90 40 2b 3f 10 3f 38 be 3c 1f b6 3d be 62 23 be
       0.6689539 -0.17992806 0.08892676 -0.15955636
0003c0 9d 15 6d bd c8 bd f0 be 8c b9 a6 bc 6e 6e 18 3f
       -0.05788194 -0.47019792 -0.020352148 0.595435
0003d0 19 ec 63 be da 13 1a 3e 4e bd 08 3f 4f f7 14 3f
       -0.22258033 0.15046635 0.53413856 0.5818986
0003e0 46 1f 93 be 66 12 64 3c 9a 49 c4 3c 45 e9 99 3e
       -0.28734797 0.013920402 0.023960877 0.30060783
0003f0 f0 cf 5b 3e 49 05 e6 30 77 95 a1 bd ad b1 d5 be
       0.2146604 1.6736205e-09 -0.07889836 -0.41737118
