networks/cifar/convSmallRELU__PGDK.onnx (onnx, 502302 bytes, 8 tensors)

1.bias f4 [16]
00000000: 9059 843e dc18 f43c 4d21 293f 4de5 b7be
00000010: afc2 94be 7f4b 76be 9902 44be 1897 6dbe
00000020: 8217 76be 97dd 2dbe 21a8 aebe 8ce5 97be
00000030: 4f24 f73e cf17 07be d81a 2e3f 30ec 9f3e
0.2584958 0.02979701 0.6606644 -0.3591713 -0.29054782 -0.24052237 -0.19141616 -0.23202169
-0.24032405 -0.16979061 -0.34112647 -0.29667318 0.4826989 -0.13192676 0.6800971 0.31234884

1.weight f4 [16, 3, 4, 4]
00000000: e4a5 57bd ba7f 56bd 9549 63bd f641 47bd
00000010: 9092 c1bd 7227 b9bd 552d b1bd 808f 99bd
00000020: f9f9 f3bd ba99 f0bd e94d f0bd f790 c2bd
00000030: 3b6a edbd 9451 02be a35c 01be 34bd bebd
00000040: ad7f b6ba 3b33 543c 2a2a 033c 3f66 13bc
00000050: 2099 473c 7c68 373d b96b 343d 5f4f 493c
00000060: 0a21 41bc dd76 263c ea91 7f3b 2027 6dbc
00000070: e40d 02bd c922 eebc be07 18bd 4dac 16bd
00000080: 7cfe 083e f7ff 5b3e 444a 433e 482b cd3d
00000090: 0400 4a3e 310b a53e 6c87 9c3e a4af 3a3e
000000a0: 321b 123e b647 7b3e 3047 5a3e 5047 f53d
000000b0: 8b2b 553d a502 be3d 13e0 833d 4dd6 d53c
000000c0: 38f1 053e e4ff 193e 81d2 f53d 7dc1 263d
000000d0: aa5a 573e 6714 843e 550b 833e 0cc6 023e
000000e0: c5fd 263e 25e6 4d3e 5ce7 6b3e 7a75 2c3e
000000f0: d3d0 b53d fd96 eb3d 8608 2d3e 7b64 0f3e
00000100: 2a0e cf3d 498c f63d 65cb b73d cb77 1e3d
00000110: 809f 213e f957 4c3e afdc 403e f0e2 d13d
00000120: 2f50 e23d 3639 163e 2b47 263e 55d6 033e
00000130: 05be 7e3d e5b1 af3d 8609 033e 7505 e83d
00000140: aa3a 823e 6e3e a03e e8ce 813e 30f2 0e3e
00000150: cb0d 9b3e 40ff d53e 14f1 c53e 9ef3 6a3e
00000160: 3f4c 813e 33bd be3e 2c4f c03e 5f10 8d3e
00000170: 7307 f93d 7680 343e d32f 5c3e d7e6 383e
00000180: b333 c03b 3a63 8b3c 17ee b93c 692c 613c
00000190: 1de3 0a3d 3eae a43c 4213 0dbb d73d 8d3c
000001a0: 5993 283c 0c64 5fbc 2e98 783b 2083 b63c
000001b0: c80c f7bc 08d0 70bd 6b7c 54bd 61ec 03bd
000001c0: ab93 43bb c98f 1bbb 7fd9 e43b 5093 063c
000001d0: d050 863c e139 9d3a d24e cfbb ca45 603c
000001e0: ef23 a13c f542 caba ce51 093c 294a e43c
000001f0: b525 bdbb cf29 04bd 2c66 f0bc a2ed 15bc
00000200: c45a 6f3b 540d dfbb e33b 06bb 9c69 173c
00000210: 4f69 a83c 160f 2abc 4c8a a1bc 6016 943c
00000220: cc1c 083d 1225 ebba fb6e 913c 3181 643d
00000230: 212c 193b 95cf edbc badd 45bc 4509 893c
00000240: 3c29 9dbd a717 bebd 1df0 943c 8b97 823d
00000250: 291d 44be 163b 83be 0766 febd 4ab8 d63b
00000260: 24f2 22be 4fa2 89be 9932 7ebe 5eaf 0dbe
00000270: bed4 a0bd 1e76 4abe d4c6 8ebe 090d 4ebe
00000280: acda 06bd 4e11 31bd f5c4 183d 5a0e 833d
00000290: 5ce8 abbd 9bc9 08be bc6b edbc eba8 4b3d
000002a0: 4876 0fbd bfd7 e7bd 5ffb cbbd f147 2abd
000002b0: b3d9 823c 0232 78bd 8049 fdbd f0ee b4bd
000002c0: 7579 1d3c 7638 83bb b7f5 8e3d 0776 c73d
000002d0: ebb1 c2bc f899 91bd 45b8 013c 0621 923d
000002e0: 21e5 eb3c 01db 5fbd b3c3 5ebd e80f a7bb
000002f0: a265 9b3d ab11 463c f3f6 61bd 6319 12bd
00000300: 8217 b4bd 3c1c 4e3d c84e 3c3e 0bb7 223d
00000310: 5cc6 8bbe 7881 81bd 2481 bb3e 4ea2 763e
00000320: c130 89be 3406 88be 3cc2 1e3e 3673 7a3e
00000330: 1377 02be 668f 7abe 2534 7fbc 6ce3 023e
00000340: 9776 96bd c9da 133d c0cd 093e f7b2 073d
00000350: 5b3a 6abe 408f 76bd e7f4 8f3e 9027 403e
00000360: 3395 5cbe 8793 6abe 2c46 db3d 48e1 3b3e
00000370: 886e dbbd c479 5abe 4e1d c3bc f01a bc3d
00000380: b2b7 bbbd 409e 453d 1492 383e b612 4e3d
00000390: 7acb 67be 3500 79bd 2429 943e 1c18 503e
000003a0: e4bf 85be 9d86 8fbe 5fc0 0a3e 0202 763e
000003b0: cfba cdbd ee83 52be e66d a9bc d29c c13d
000003c0: d1c0 693d ed72 6c3d 05f5 903c 001c 493c
000003d0: 5dfe ba3d 0636 ad3d 6d84 403d ed2f 243d
000003e0: 68b3 8d3d 2839 7c3d d4ab ae3c 8f5a d93b
000003f0: 279c 283b 14c0 8ebc a57c 8cbd 4e9e 6abd
-0.05264844 -0.052367903 -0.055490095 -0.04864689 -0.09451783 -0.09040727 -0.086512245 -0.074980736
-0.11912913 -0.11748071 -0.1173361 -0.09500306 -0.115925275 -0.12726432 -0.12632994 -0.093134314
-0.0013923548 0.012951667 0.008005658 -0.008996545 0.012182504 0.04477738 0.044048045 0.01228699
-0.011787662 0.010160175 0.0038996884 -0.01447466 -0.03175153 -0.029069321 -0.03711676 -0.036785413
0.13378328 0.21484362 0.19071299 0.10018021 0.19726568 0.322351 0.3057207 0.18231064
0.14268187 0.24539074 0.21316218 0.119764924 0.05204348 0.09277848 0.06439223 0.026103163
0.13080299 0.15039021 0.12003041 0.04071187 0.2103068 0.25796816 0.25594583 0.12770861
0.16307743 0.20107324 0.23037475 0.16841689 0.08877721 0.11503408 0.16897783 0.14003174
0.101101235 0.12038476 0.08974341 0.038688462 0.157835 0.19955434 0.18834184 0.10248363
0.1105045 0.14670262 0.16238086 0.1287473 0.062192935 0.085788526 0.12796602 0.11329166
0.25435382 0.3129763 0.2535317 0.13959575 0.3028396 0.41796303 0.3866049 0.22944495
0.25253484 0.37253723 0.37560403 0.27551553 0.12159624 0.17627129 0.21502618 0.18056808
0.005865538 0.017015088 0.022696538 0.013743498 0.033908 0.020102616 -0.002152637 0.017241402
0.010289037 -0.013634693 0.0037932503 0.022279322 -0.030157462 -0.058792144 -0.051876467 -0.03220785
-0.0029842656 -0.0023736826 0.0069839354 0.008213833 0.016395956 0.0011995399 -0.006326535 0.013688514
0.019670455 -0.0015431332 0.00838132 0.027867394 -0.0057723173 -0.032266434 -0.029345594 -0.009150894
0.0036522606 -0.0068070088 -0.0020482473 0.009241488 0.020558028 -0.010379573 -0.019719265 0.018077075
0.033230588 -0.0017940125 0.017753115 0.05578727 0.002337225 -0.029029647 -0.0120767895 0.016728053
-0.076738805 -0.09281855 0.018180901 0.06376561 -0.19151749 -0.25631016 -0.12421804 0.0065527307
-0.15912682 -0.26881644 -0.24823989 -0.13836429 -0.07853077 -0.1977162 -0.2788607 -0.2012216
-0.032923386 -0.043229394 0.037297208 0.06399222 -0.083939284 -0.13358156 -0.028982036 0.04972164
-0.03502491 -0.11320447 -0.099600546 -0.041572515 0.015972948 -0.060594566 -0.12367535 -0.08834636
0.009611477 -0.0040045334 0.0698046 0.09739309 -0.023766479 -0.07109445 0.007917468 0.07135205
0.02879578 -0.054652218 -0.054385852 -0.0050983317 0.07587744 0.012089173 -0.05516715 -0.035668742
-0.08793546 0.050319895 0.18389428 0.039725345 -0.27299774 -0.06323522 0.36621964 0.24085352
-0.2679501 -0.26567233 0.15503782 0.24458012 -0.12740736 -0.24468765 -0.015576397 0.12782067
-0.07346838 0.03609732 0.13457394 0.03312966 -0.22873823 -0.060195208 0.28116533 0.18765092
-0.2154129 -0.2290784 0.107067436 0.18347657 -0.107144415 -0.21335512 -0.023817685 0.091848254
-0.091658965 0.048246622 0.18024474 0.050310813 -0.22636214 -0.060791213 0.28937638 0.20321697
-0.26122963 -0.2803239 0.13549946 0.24024203 -0.100453965 -0.2055814 -0.020682286 0.09453739
0.05706865 0.05772679 0.01769496 0.012274742 0.09130547 0.0845757 0.04700129 0.040084768
0.06918985 0.061577946 0.021322168 0.00663311 0.002572784 -0.017425574 -0.068597116 -0.057279877

3.bias f4 [32]
00000000: f40a 1a38 c687 a3b9 5daa 23b9 712c 2c38
00000010: 1440 fdb9 afc0 6839 15fa 1d39 2a86 ba37
00000020: a85d 7639 b816 8238 981e ddb3 e4d6 14b9
00000030: d373 be39 f155 8b38 99f8 4ab9 97b4 2339
00000040: 29a4 4bb9 cace 2fb9 61c2 6db8 61f2 a139
00000050: 726c d038 34ed de39 dfa8 3639 2022 3e39
00000060: 1fc8 6737 b4a6 05b8 1440 95b7 0714 e638
00000070: 8fe3 a438 75bc f8b8 bfe6 a9b9 83fb 44b9
3.6726662e-05 -0.00031190942 -0.00015608357 4.1049385e-05 -0.00048303662 0.00022197024 0.0001506585 2.2235403e-05
0.00023495278 6.203115e-05 -1.02966794e-07 -0.00014194433 0.0003632592 6.644044e-05 -0.00019356831 0.00015612166
-0.00019420743 -0.00016766335 -5.6686233e-05 0.000308889 9.9384124e-05 0.0004251987 0.00017419782 0.00018132525
1.3815267e-05 -3.1864925e-05 -1.7792023e-05 0.00010970985 7.8625155e-05 -0.000118606644 -0.0003240611 -0.00018785712

3.weight f4 [32, 16, 4, 4]
00000000: 247a 3bbd e0ac d3bc 6caa 6ebd 7774 60bd
00000010: 50ff b9bc b4e2 bdbc 5779 31bd f309 3ebd
00000020: f3b4 0abc d58e 92bc 5c5d 7ebc 698c 43bc
00000030: 2e83 4cbd a456 06bc c39a 033b 839a 4bbc
00000040: aa7e 0c3d 0085 77bc 94a8 2cbc 7fd9 5dbd
00000050: 6f12 6d3d cdfb b73c 821e 463d 6ac4 fb3c
00000060: 1e25 e43c e57c 693c 4b19 553c a114 873c
00000070: afb0 003d 8658 183d 1bae 66bc abe3 d4bb
00000080: cf1e 893c 3317 063c 4787 e43c 25cc 17bc
00000090: bc93 b83c d82b 363c b6cf 723c b687 38bb
000000a0: cf32 263d 1e74 4a3c 9d39 a03c 66e1 a13b
000000b0: e89f 8f3d 5c5a 733d 14d8 203d 47e3 743c
000000c0: 7831 bb3c b184 e83c 3e92 c03d 5d48 193e
000000d0: b1e7 2dbd 4617 1f3d fdcc 053e 3dea e83d
000000e0: 0031 e9bd db6c bebd 9745 153d c4d7 bc3c
000000f0: 0eb6 d5bd 9bc5 ddbd 2c30 dcbd 2c52 fabd
00000100: 0d0c 85bb 1ac0 e83b b292 94bd e082 96bd
00000110: 0efa 3bbd d3eb 2bbd 415b 25bd d6b9 fbbc
00000120: b772 d9bd 5478 dabd 93f1 a3bd 6af1 28bd
00000130: e984 e2bd eda3 c6bd 8510 93bd 4132 56bd
00000140: 6806 c13c 3f91 0d3d 1769 a93d 16a8 d83d
00000150: a418 2dbd 4f57 c2bc 1040 0a3d 3f12 5a3d
00000160: 81db 36bd 4fe8 48bd 1fd8 fdbc e6e1 a63c
00000170: 1036 96bc 2b75 3ebd a885 0cbd f61d 6fbd
00000180: e1f3 a0bc 66ac 12bd a0b3 9fbd aa9f 92bd
00000190: 3d33 813c 99c6 7bbc 73ba 66bd 21eb 8cbd
000001a0: 210e 353d 85ad 223d 48bb e13c b221 9b3b
000001b0: f507 6a3d e190 7d3d a523 543d 34ec 693d
000001c0: 8281 02bc 58d8 f539 e6fb 80bc ceed e4bc
000001d0: ecf6 953b 624f 293b 6dd0 02bc c235 9bbc
000001e0: aefc 06bd b64e 47bd fff9 32bd 29af d6bc
000001f0: 92d1 42bd 6dd4 0dbd cc75 1bbd f697 edbc
00000200: fccc 2c3b 4322 383c 91e5 aa3b 447d 0cbd
00000210: 8082 39bd 4232 eabc 7048 dfbc 7fa6 80bc
00000220: c2ec 9bbd 3308 d7bd 1cf2 03bd 98d6 93bc
00000230: 1f13 a9bd 3dcf e4bd 55d6 6cbd 2d39 19bd
00000240: a2b9 5cbc eb21 babc e09f 553c 411b e5bc
00000250: 5ba0 a9bc e663 4dbc 2d2d 89bc 9491 b7bc
00000260: b489 2fbb e4ba aebc f3ec 18bd 8f63 4b3b
00000270: 429a d6bc 5c63 9cbd 45b5 92bd 2fa9 7cbd
00000280: 33a9 dfbc c9d8 0bbc 0409 29bd 7569 88bd
00000290: aa4b 43bd 793b 79bc 75ac 2ebd 8a58 55bd
000002a0: ab69 81bd 2492 a6bd 88f2 b2bd 530b 32bd
000002b0: 8398 57bd 5a9a c1bd 9be9 90bd c6ba 76bd
000002c0: b65a 493c bdbd 1f3d 30d2 0ebd 7153 c43c
000002d0: 842e 6ebc 2332 18bc db5d 6fbd cd75 0b3c
000002e0: 0752 c5bd 2a39 b8bd 8e96 88bd 084d 16bd
000002f0: a039 f5bd 5bfb e1bd 2efd 4ebd 646f 09bd
00000300: 1176 7f3c 768b 373d fb20 903d fb85 863d
00000310: 473d 05bd 2113 22bc 8915 213d dc77 3e3d
00000320: 22a7 8fbd c94a 0bbd 420a 21bc 58c6 7c3b
00000330: ca02 89bd 23f0 74bd bd46 f9bc cc2a 9cbc
00000340: 70c7 923c c42f 9abc 3ff3 5fbd da12 abbd
00000350: 7e24 413d c80c 213b 9feb 0bbd ed50 6ebd
00000360: cb68 923d 0480 423d 6275 e13c df75 50bb
00000370: 5072 a23d bdaa 993d 4c10 9b3d 6977 843d
00000380: b945 993d dcaf 163d 61f9 edbb c6e0 c2bc
00000390: 4fc9 993d 0273 593d e340 153d c7cc a53c
000003a0: cdff cf3d ed24 973d d677 b53d aaf5 7e3d
000003b0: a399 a23d 725d 423d abda 893d 075f 743d
000003c0: 6329 c73b 93a7 953d ff60 803e f5ee b23e
000003d0: 94bd 36be 461c 89bd d813 093e f221 6d3e
000003e0: 20f4 a1be ef21 58be dfe5 87bc 40ca 7f3d
000003f0: 081f 78be bea4 54be e2cb 38be a423 f1bd
-0.04577078 -0.02583927 -0.058267996 -0.05479857 -0.02270475 -0.02317939 -0.04332861 -0.046396207
-0.008465993 -0.017890373 -0.015525188 -0.011935332 -0.04992979 -0.008199368 0.002008126 -0.012426975
0.034300484 -0.015107393 -0.010538239 -0.0541625 0.057878908 0.022458935 0.04836894 0.030733306
0.02784973 0.014250969 0.013006519 0.016489329 0.0314185 0.037193798 -0.014079596 -0.0064968667
0.016738323 0.008184242 0.027896537 -0.00926498 0.022531383 0.011118852 0.01482003 -0.0028157062
0.0405758 0.012356786 0.019558722 0.0049401997 0.070129216 0.059412345 0.03926857 0.014946765
0.022850737 0.028383585 0.094028935 0.1496901 -0.042457286 0.038840555 0.13066478 0.113728024
-0.11386299 -0.09298106 0.03644332 0.023052104 -0.10435115 -0.10828706 -0.107513756 -0.12222704
-0.0040602745 0.0071029784 -0.072545424 -0.07349181 -0.045892768 -0.041972946 -0.04037023 -0.030728262
-0.10617583 -0.10667482 -0.08005061 -0.041245855 -0.11060507 -0.09699235 -0.07180885 -0.05229402
0.023562625 0.034562346 0.082719974 0.10578935 -0.042259827 -0.023723273 0.0337525 0.053240057
-0.04464293 -0.04904967 -0.030986844 0.020371389 -0.018336326 -0.04649846 -0.034307152 -0.058378182
-0.01964754 -0.035808943 -0.077979326 -0.0715936 0.015771503 -0.015367174 -0.056330156 -0.06880785
0.044202928 0.039716262 0.027555123 0.0047342414 0.057136495 0.061905745 0.051791806 0.057110026
-0.007965447 0.0004689123 -0.015745115 -0.027945425 0.0045765545 0.002583467 -0.007984263 -0.018946532
-0.032955818 -0.04865905 -0.043695446 -0.02620657 -0.047563143 -0.034626413 -0.037954137 -0.029003125
0.0026367297 0.011238637 0.0052153547 -0.03429915 -0.04529047 -0.028588418 -0.02725622 -0.015704392
-0.07613517 -0.10499611 -0.032213315 -0.018046662 -0.082556 -0.1117234 -0.05782159 -0.037408043
-0.013471993 -0.022721251 0.013038605 -0.027967097 -0.020706346 -0.012536025 -0.016745174 -0.022408284
-0.0026784958 -0.02132935 -0.037335347 0.0031034683 -0.026196603 -0.07636139 -0.07163481 -0.061684784
-0.02730236 -0.008535572 -0.041268364 -0.06660739 -0.04767958 -0.015211933 -0.042644937 -0.05208639
-0.06318983 -0.08133343 -0.087376654 -0.04346783 -0.05263568 -0.09453268 -0.07075807 -0.060236715
0.012289694 0.038999308 -0.03486842 0.02396557 -0.014537457 -0.009289297 -0.058439117 0.008511973
-0.09634786 -0.08995278 -0.06669341 -0.036694556 -0.11973882 -0.110342704 -0.05053442 -0.033553496
0.015592114 0.044810735 0.070375405 0.065685235 -0.03252914 -0.009892256 0.03932718 0.046501026
-0.070143 -0.034006868 -0.009829106 0.003857037 -0.06689985 -0.059799325 -0.030429238 -0.019063376
0.017917365 -0.018821605 -0.054675337 -0.08353205 0.047153942 0.0024574269 -0.034160253 -0.058182646
0.07148894 0.047485366 0.027521793 -0.0031808538 0.0793196 0.07503269 0.07571468 0.06468088
0.07484002 0.036788806 -0.0072623943 -0.023788821 0.075091 0.053088196 0.036438834 0.020239247
0.10156212 0.0738009 0.088607475 0.062246002 0.0793946 0.047452398 0.06731161 0.059660938
0.0060779317 0.07307353 0.25074002 0.34947935 -0.17845756 -0.06694846 0.13386476 0.2315748
-0.31631565 -0.21106695 -0.016589103 0.06244874 -0.24230587 -0.20765969 -0.18046525 -0.11774376

6.bias f4 [100]
00000000: f9a6 c238 c219 9eb8 59c1 72b8 a540 f738
00000010: 7930 083a 0801 4623 2a00 0080 3823 cab8
00000020: b8a8 f438 fea0 f7b8 8817 bab9 257b 8139
00000030: afb7 23b8 c97c a839 be57 8739 0a48 33b9
00000040: 590e aa39 69c4 6839 0735 5b39 03d7 ca37
00000050: 4531 1239 d861 8938 c670 4b37 a6bc cfb7
00000060: 20e4 14b9 a7bd 3eb9 44c9 4239 a648 97b8
00000070: c9f6 65b9 6992 b7b9 6933 15b9 f96c 2538
00000080: 65ff 5db8 d213 bd39 69d9 58b9 4600 2e39
00000090: 81bb 7838 1646 8639 b697 3339 5bde 2ab9
000000a0: fc55 1ab6 14a1 84b8 ac6a edb7 1f6b b3b8
000000b0: d4e9 f5b8 0487 b6b9 1676 4db9 b14c 8538
000000c0: 5455 cfb9 587e a238 e63a 54b8 ab1d 88b9
000000d0: d71e 8d39 1672 1e39 2fbc b839 6c60 88b9
000000e0: a12a 59b8 661d b4b7 92f7 043a de93 6d38
000000f0: 6a1e d139 04e7 1139 0ef4 f639 6ed3 e139
00000100: eea8 1239 e0bd 44b9 4c45 9f39 1761 b6b9
00000110: 55b9 d839 9aa5 ae30 be39 d537 5ceb f7b8
00000120: 196b 4339 adbb d437 ff52 4139 4627 40b9
00000130: bb05 6438 f49e f138 e669 8138 bddc 1a39
00000140: c184 f738 6804 9f39 d19d 7039 cb83 9ab9
00000150: 03eb 00b9 f578 8e38 4d34 ccb8 1ac2 3939
00000160: c085 71b9 0678 ba38 0af9 1fb9 2128 be39
00000170: 688c 84b9 0128 8b38 4d4e 7fb9 e491 8e39
00000180: acf4 29b9 16ce 2ab9 b478 d638 0230 0639
9.281742e-05 -7.538825e-05 -5.7877365e-05 0.00011789919 0.0005195211 1.073382e-17 -5.9e-44 -9.6386706e-05
0.00011666253 -0.00011807865 -0.00035494217 0.00024696547 -3.9033297e-05 0.0003213643 0.0002581458 -0.00017097607
0.00032435617 0.00022198413 0.00020905222 2.41804e-05 0.00013942 6.550894e-05 1.2126e-05 -2.476417e-05
-0.00014199363 -0.00018190463 0.00018576259 -7.213773e-05 -0.00021931076 -0.00035013564 -0.00014228899 3.9440554e-05
-5.292836e-05 0.00036063656 -0.00020680357 0.00016594035 5.9302434e-05 0.0002561069 0.00017127287 -0.00016295297
-2.2997838e-06 -6.3242536e-05 -2.8302275e-05 -8.555338e-05 -0.00011726064 -0.0003481434 -0.00019594314 6.356219e-05
-0.0003954569 7.748295e-05 -5.0599592e-05 -0.00025962046 0.00026916593 0.00015110555 0.00035235423 -0.0002601178
-5.1776533e-05 -2.1471362e-05 0.0005072291 5.6642915e-05 0.00039886247 0.00013914338 0.0004710261 0.00043072872
0.00013986576 -0.0001876275 0.00030378473 -0.00034786083 0.00041336814 1.2707233e-09 2.5418467e-05 -0.00011821717
0.00018636546 2.5359763e-05 0.00018436833 -0.00018325177 5.4364773e-05 0.00011521383 6.1709245e-05 0.00014768816
0.00011802605 0.00030330126 0.00022946975 -0.00029471362 -0.0001229458 6.793618e-05 -9.73722e-05 0.00017715283
-0.00023033377 8.891527e-05 -0.00015256196 0.00036269522 -0.00025281613 6.635488e-05 -0.00024347864 0.00027193048
-0.00016208243 -0.00016289236 0.00010226798 0.0001279712

6.weight f4 [100, 1152]
00000000: 27be 803c cbcc c6bc f03c bc3b f519 e53c
00000010: bf1a f1bb 30d7 113b 7b1e 813b a55e 4fbc
00000020: b5ff a5bc a011 303d 8d06 54bc 9c92 40bc
00000030: 9bca 9abc 8da5 f53a 205a 933b e102 b73c
00000040: 812b afbc 9c6b 30bc 8012 8bbc 8aed f53c
00000050: 7533 8b3c d03b 573c 58a6 8dbb 0ad7 c73c
00000060: e36f 26bc d3a6 57ba ee68 373c 0bbe 85bc
00000070: 8c92 c4bc 0d32 2abc 993d 6a3c 4879 d03b
00000080: 6bc7 c33c 1847 d13c 2740 ccbb a54b 6abc
00000090: 9099 4e3c 4fe0 30bc 028d 6fbc 12b3 2cbd
000000a0: 122f d9bc 567f 65ba fd97 183d 440d 353c
000000b0: d8e8 29ba e15a fc3b 6538 c5bc b0da 4fbc
000000c0: da0f 21bc a550 783b 6b03 043c d2bf 4dbc
000000d0: 3f46 e0bc a121 b93c 36e8 5c3c b4c0 883a
000000e0: 46c3 c8bc 9620 cdbc 7abf 0f3b a096 053d
000000f0: 68c9 213d 2474 6b3b 5b06 b6ba 6fc7 843c
00000100: 0ab7 3d3c 5da9 2b3d e957 7b3c 7607 573c
00000110: 5fb9 923b e02d c8bc 6dcb 093c e76f c53c
00000120: b97c 143c b05e 883b b4b9 fc3b c426 ec3a
00000130: 9489 e6bb 67ea 8fbb a0b1 e73b 784e 80bc
00000140: 2acb e23c 054f 013d 642c 763c c9d6 2ebc
00000150: e652 a6b9 0528 1f3c 8cc4 013d 3825 71bc
00000160: 76c6 b8bc 8991 af3b ea51 98bc 8473 173d
00000170: 1fb9 773d fa09 d53c 5802 20bc e6c8 1b3c
00000180: 8db7 c9bb 9f1a 8c3c c680 663c 02a5 a13a
00000190: c87a 03bb bb36 ddbb 9139 b8bc 7f84 493c
000001a0: 9091 8dbc 8106 32bb b388 f83a 9083 53bc
000001b0: c130 55bc 78b4 e5bc fb88 0a3d a7e7 93bb
000001c0: a994 513c e309 303b 0d03 a03c 8fa4 acbc
000001d0: b6f5 8bbc 2a3b 5abc 2ce0 cb3c 7821 01bd
000001e0: bb3e 803c b93e d83c 634f a43b 7cfc 213c
000001f0: 3826 4ebc 9bc4 313d 3b86 683c 3ddf 08ba
00000200: b30a 003d 9689 cb3c 47f5 33bc 40e5 9bbc
00000210: 8a32 7e3b c5a5 e3bb 26e0 ffbb 5cfc b03c
00000220: 1a49 863c 5a9b 1abc 489c 073c b862 82bc
00000230: b124 08bd 8e5a 673c b9c4 f83c 5985 5cbb
00000240: bc13 bf3c 74c3 50bc 2362 b4bc 83f5 c8bc
00000250: 3bdd d73b 484a 783d 2fe4 77bc 1452 90bb
00000260: 33d1 64bd 4548 f9bc d841 ddba aa24 21bc
00000270: 8a5e 77b9 ecbd a7bc def1 b2bb 4a3c 40bd
00000280: ad59 0abd 5964 75bc 75c1 13bc 33e2 ddbc
00000290: 6091 74bc 5c36 2bbc 2768 8fbc a10c 43bd
000002a0: 611c 973c 0a41 eabb 313b 60bd 3008 d83a
000002b0: 9132 31bb 583f 9f3a 466f 173c ecaf c3bc
000002c0: ea3a 2cbd 8668 ca3b 9097 963c b055 953b
000002d0: 37fe 943c 467b 3c3b 670b 743c fd95 aabb
000002e0: 44e1 013c 16c7 7cbb 3fc2 93bc 0bab 873c
000002f0: ec49 e4bc 0743 d43c 014b 843c 2348 9a3c
00000300: e159 843c bd4e 09bc cace c0bb 40b7 dc3b
00000310: c3bc 2f3d bcaf eebb f25b 6abc 894e fdbc
00000320: 73e2 153b 0426 6fbc 6134 323c 1fe3 cbbb
00000330: e509 10bd f685 e73c 6359 c83a 9d4d 13bb
00000340: 7ec0 8d3c e486 5b3c 7cd5 36bd 2536 7dba
00000350: 64f1 8e3c b37f 6b3b 7a95 843c 2e43 e43c
00000360: 179b b43b 2645 553c 0adb 6c3c 49b0 a4ba
00000370: 1203 c2b9 2223 b1ba 13c4 9dbb f412 bb3c
00000380: 4cf8 473c 6069 853a 4971 13bd 42d5 493c
00000390: 1688 3fbc a49a 38bc 2594 893c d263 4fbc
000003a0: 966d 26bb 3020 2d3d 5aa0 59bc 8956 71bc
000003b0: 2db0 60bc 0c81 4e3a cc7a 943c 676e 023d
000003c0: 2dc5 17bc c096 e03c 80c1 013d 36fe 173b
000003d0: 5324 6b3d 283d 423d a325 25bc 6fd6 a13c
000003e0: 8a2b 7ebb 2980 89ba e7b0 0b3d e57b cf3c
000003f0: 5364 9b3c 7370 12bd 5aa8 5abc a906 2bbd
0.015715672 -0.024267575 0.005744569 0.027966479 -0.0073579247 0.0022253506 0.003940401 -0.012656842
-0.020263532 0.04298556 -0.012941015 -0.011753704 -0.018895438 0.0018741355 0.0044968277 0.02234024
-0.021383049 -0.010767844 -0.016976595 0.030020494 0.01699231 0.013136819 -0.0043228082 0.02439453
-0.010158512 -0.0008226458 0.011194451 -0.016325971 -0.02399566 -0.01038791 0.014296913 0.006362114
0.0238988 0.025546595 -0.0062332335 -0.014300262 0.012609854 -0.010795667 -0.014621021 -0.042162962
-0.026511703 -0.0008754631 0.037254322 0.011050526 -0.0006481535 0.0077012633 -0.024074743 -0.0126864165
-0.009830439 0.0037889865 0.0080574555 -0.012557941 -0.027377246 0.022599043 0.013483098 0.0010433407
-0.024507176 -0.025039952 0.0021934197 0.03261435 0.039498717 0.003592738 -0.0013887392 0.016208379
0.011579284 0.041909564 0.015340784 0.013124337 0.0044776644 -0.024435937 0.008410317 0.02410121
0.009062939 0.0041616783 0.007712567 0.0018016924 -0.0070354436 -0.0043919566 0.007070735 -0.015662417
0.027684767 0.0315695 0.015025232 -0.010671326 -0.0003172375 0.009714131 0.031681582 -0.014718346
-0.022555571 0.0053579253 -0.018593747 0.0369754 0.06047928 0.026005734 -0.009766184 0.009508347
-0.006155914 0.017102538 0.014068788 0.0012332501 -0.0020062197 -0.006750909 -0.022488387 0.012299656
-0.017281324 -0.002716452 0.0018961638 -0.012909785 -0.013012112 -0.028040156 0.03382204 -0.004513699
0.012791791 0.0026861362 0.019532705 -0.021074561 -0.017084938 -0.01331977 0.024887167 -0.03152606
0.015654912 0.026397096 0.0050143464 0.009886857 -0.012582354 0.04340039 0.014192159 -0.00052212534
0.031260204 0.02484588 -0.010983772 -0.019030213 0.0038787448 -0.0069472515 -0.007808703 0.02160471
0.01639228 -0.009436453 0.008277006 -0.015916213 -0.033238117 0.014120711 0.030367242 -0.0033648817
0.02332484 -0.012741912 -0.022019451 -0.024531132 0.006587652 0.060617715 -0.015130087 -0.0044043157
-0.05586357 -0.030429969 -0.0016880585 -0.009835402 -0.00023590974 -0.020476304 -0.0054609617 -0.046932496
-0.033776928 -0.014977538 -0.009018292 -0.0270854 -0.014927238 -0.010449972 -0.017505718 -0.047619466
0.01844615 -0.0071488665 -0.05474395 0.0016481932 -0.0027038197 0.0012149615 0.009242838 -0.023887597
-0.042048372 0.006177011 0.018382818 0.004557334 0.018187625 0.002876 0.014895297 -0.0052058683
0.007927243 -0.0038570813 -0.01803696 0.016561052 -0.02786728 0.025910867 0.016149046 0.018833226
0.016156139 -0.008380589 -0.005884026 0.0067357123 0.042904627 -0.0072841328 -0.014304148 -0.030921238
0.002287057 -0.014596466 0.010876746 -0.0062221433 -0.035165686 0.02826212 0.0015285428 -0.002247668
0.017303701 0.01339886 -0.04463719 -0.0009659252 0.017449088 0.003593427 0.016184557 0.027864065
0.005511652 0.013016975 0.01445652 -0.0012564744 -0.0003700485 -0.0013514499 -0.0048146336 0.022836186
0.012205195 0.0010178499 -0.03599671 0.012318911 -0.01169016 -0.011267338 0.016794274 -0.012658076
-0.0025394908 0.042267025 -0.01328286 -0.014730104 -0.013713879 0.0007877506 0.01812496 0.03184357
-0.009263319 0.027415633 0.031678677 0.0023192293 0.05740769 0.047421604 -0.010079774 0.01975557
-0.0038783276 -0.0010490465 0.034104254 0.025327632 0.018968737 -0.03575177 -0.013345802 -0.0417544

8.bias f4 [10]
00000000: 1f5e 5ab8 3db7 19b9 1179 45b6 86e1 87b7
00000010: 1e0e 9e38 857b 9fb8 ca19 23b8 36ce 0b39
00000020: ba9c 5539 1289 ceb8
-5.2062907e-05 -0.00014659479 -2.9425757e-06 -1.6198272e-05 7.5366566e-05 -7.604718e-05 -3.8886246e-05 0.00013332893
0.00020371648 -9.848377e-05

8.weight f4 [10, 100]
00000000: 98b9 453e 499c ddbd 535c 083d d2dd 763e
00000010: 2135 0b3e 5c47 d7b9 36bb d237 f62c cfbe
00000020: 6163 7bbd d62b 2a3e f208 823d d71d f03e
00000030: 81fd 0dbe 0411 c1bd 72f5 f5be 0d61 a4bd
00000040: bc1a 433e 19d9 813d 2798 c53d 252f 1c3e
00000050: abbb 2b3e ced5 d8bd 9e0f a03e fbf6 35be
00000060: b0a3 4cbd db96 29be c218 a4be a1f9 92bd
00000070: 1346 91be 9a18 8abe dafe 27be 402f 103e
00000080: f207 b93e bb63 f43d 5ec6 3c3e db5b 5d3e
00000090: 1ee8 86bd 529f 813c 5d59 89bd afcf 22be
000000a0: a0f8 76be 3c3a 273d 1c63 5c3d 22eb b43e
000000b0: e76e 9e3d 3cc5 8cba f0a2 06be ee3a 8d3e
000000c0: 41fe 4d3e 6431 333d b509 5abe abaf a4be
000000d0: f620 1c3e 5b2f 23be e0e8 adbe 3627 5dbe
000000e0: aa3a 4abc 633a c6bc 9989 bbbd 082a a03c
000000f0: 859f 423e 3f22 8e3e e08d 053e c2f0 07be
00000100: b080 84be 58c0 5bbe e54f 28bd 0088 863d
00000110: 85d6 343e 3574 d0ac f1be ad3d e680 ff3d
00000120: 3bf7 a2bc b93b b7bc 9568 20be 1bf7 b23e
00000130: 651c cebc 5a6e 67be f231 80bc cf63 c63d
00000140: 3cfc 41be f0d2 973d 62ba c23e bc8f c4bd
00000150: 0b77 43bd 8d3f 8c3e 4235 f93d eecd 37bd
00000160: f6d9 16be 4c20 bc3d a449 e6bd c65e 41be
00000170: 713c 56be dd6c 163f b5c9 a33b b5d8 f03c
00000180: ba44 843e eb83 bd3e dc68 adbe 8328 713d
00000190: df39 d33d 488d ac3d 7157 9e3e b144 96bd
000001a0: cc77 04be 14ef 693a 72b6 d6b7 07da 24bd
000001b0: 82aa cbbd fed0 9dbe b684 8a3e abe7 163b
000001c0: 3082 b43e a04e d3bc aa45 97bc b676 473e
000001d0: c46f 83be e37e fcbe 026e ed3d 990c 81be
000001e0: ec67 923d 55bd 32be 71e7 973d 638a 11bd
000001f0: c5b9 683d cfa7 743e b511 29be aade cdbd
00000200: 60f9 e13d 5670 063f e4c8 593e 50d7 ec3d
00000210: 0c66 e2bd b8dc 053b 49d8 953d abf9 c4be
00000220: 3966 44be e69c 26be 070d 2dbe ba5d 0c3e
00000230: 0280 8d3d 5033 4e3e f8a2 be3d 5f9e a2bd
00000240: c914 e1bd b9e0 f73c f077 55be 39fc cfbd
00000250: dffa 413e 3349 92be ce6b f2bc bc14 ab3e
00000260: 7a12 c23d ff95 4f3e 96aa 7b3e ba0a 933e
00000270: bd9d a83d 20ce 643e f6ca 55be 3f8e 2e3f
00000280: d946 c63c 6f1f 723c df75 813d 55c7 b2bd
00000290: e7fb 16be a783 873e e96f 15be 04ee b53e
000002a0: ec87 213c c4c9 83b0 c52a fbbe 96b9 8ebe
000002b0: f455 a3be 6483 1d3e af79 07be 2f3f c0be
000002c0: 7104 bb3d ab28 3abe f44c 14be d184 10be
000002d0: a188 7abe 8c02 e4bb 788b 69be 4438 da3e
000002e0: dcbd 33be 2f32 5ebe bab6 7bbe 4b5f 0f3d
000002f0: 64a9 c5bd bde8 2a3e 9613 033f 6099 80be
00000300: 7201 a2bb c00f 90bc 81d2 69bc 0883 063e
00000310: 7758 8cbd 6dec 28bd 4190 11bd 6f3a 20bc
00000320: 21bd bd3e 9e39 95be 93df 263e 5e3d 31be
00000330: ba81 3d3e 2874 8039 c8d7 44b8 963f 4a3c
00000340: f45a a6bd a70a ab3d 390f 3bbe fec9 3dbd
00000350: 52b9 9abe 3899 223e 39a7 493e 5047 70be
00000360: 0773 403e c6ed dc3c af5d 11be dee2 f83d
00000370: a51e 24be ec5c eabd aeb8 06be 23a9 bb3e
00000380: 5774 9d3d 3524 c2bd fd37 0dbc c0e9 183e
00000390: 0f96 25be a11f e2bd e890 1cbe 2a1e 803e
000003a0: f86d 793e 14de 5dbe 450e 90be fd5e b53e
000003b0: 53be a63e 1e48 43be 2c14 583d ee05 ecbd
000003c0: f3e8 503e 923c cebe 6a22 7ebd 0691 3c3c
000003d0: e842 00be 0d7c 043e c79e e83e b45d 763e
000003e0: b896 f7bd 5538 b8bd 58f4 d23d 2a58 4f3e
000003f0: 0c2f d73d 78fb 883e 0540 3fbe eeed 53be
0.1930908 -0.10820825 0.033291172 0.24108055 0.13594486 -0.00041061162 2.5121128e-05 -0.4046399
-0.061374072 0.16618285 0.063493624 0.46897766 -0.13866235 -0.094270736 -0.48038822 -0.080263235
0.19053167 0.06340236 0.096481614 0.15252359 0.16770808 -0.10587655 0.31261915 -0.17769997
-0.049960792 -0.16561453 -0.3205014 -0.07176519 -0.28373775 -0.26971895 -0.16405812 0.14080524
0.36138874 0.119330846 0.18435046 0.21617071 -0.065872416 0.01582304 -0.06706498 -0.15899538
-0.2411828 0.04082702 0.053805456 0.35335642 0.07735997 -0.0010739933 -0.13148093 0.27584022
0.20116521 0.043748274 -0.21292765 -0.32165274 0.15246949 -0.15936033 -0.33966732 -0.21596989
-0.012343088 -0.024197763 -0.09157104 0.019551292 0.19006164 0.27760503 0.13042402 -0.13275436
-0.2587943 -0.21460092 -0.04109182 0.06568909 0.17659958 -5.924617e-12 0.08483685 0.12475757
-0.01989328 -0.022367345 -0.15664895 0.34954152 -0.025160024 -0.2260069 -0.015648816 0.09687006
-0.18943876 0.0741328 0.38032824 -0.09597728 -0.04772095 0.27392235 0.12168361 -0.044874124
-0.14731583 0.09185848 -0.112445146 -0.1888381 -0.20921494 0.5875986 0.0049984106 0.029400209
0.25833684 0.37014708 -0.33869064 0.058876526 0.103137724 0.08425385 0.30926087 -0.073373206
-0.12936324 0.000892387 -2.5595746e-05 -0.04024699 -0.09944631 -0.3082351 0.27054375 0.0023026268
0.35255575 -0.025794327 -0.018465836 0.19478878 -0.25671208 -0.49315557 0.11593248 -0.25204924
0.07148728 -0.17455037 0.07417191 -0.035532366 0.05681779 0.23892139 -0.16510661 -0.100522354
0.11033893 0.5251516 0.2126804 0.11564505 -0.1105462 0.0020425748 0.07316644 -0.38471732
-0.1917962 -0.1627079 -0.16899501 0.13707629 0.06909181 0.20136762 0.093084276 -0.07940363
-0.109902926 0.030258523 -0.20846534 -0.101555295 0.18943356 -0.28571472 -0.02959242 0.33414257
0.094761804 0.20272063 0.24576792 0.2871912 0.08233211 0.22344255 -0.20878205 0.681858
0.024203705 0.014778002 0.0632131 -0.08729426 -0.1474453 0.2646763 -0.14593472 0.35533154
0.009859066 -9.58885e-10 -0.49056068 -0.27875966 -0.31901515 0.15382153 -0.13230012 -0.37548205
0.091317065 -0.18179576 -0.1448248 -0.14113165 -0.24466182 -0.0069583114 -0.2280711 0.42621052
-0.17552894 -0.21698831 -0.24581423 0.035002988 -0.09651449 0.16690345 0.5120176 -0.25117016
-0.00494402 -0.017585635 -0.014271379 0.13135922 -0.06852811 -0.0412411 -0.035537962 -0.009779557
0.37058356 -0.2914552 0.16296224 -0.17308566 0.18506518 0.00024500606 -4.6931003e-05 0.012344262
-0.08122817 0.08351641 -0.18267526 -0.046335213 -0.30219513 0.15878761 0.19692697 -0.23464704
0.1879388 0.026968848 -0.14195894 0.121526465 -0.16027315 -0.11443505 -0.13156387 0.3665248
0.07688206 -0.09479562 -0.008619306 0.14932919 -0.16170524 -0.11041189 -0.15289652 0.25023013
0.24358356 -0.21666747 -0.28135887 0.35424033 0.3256708 -0.1907048 0.052753612 -0.115245685
0.20401363 -0.40280586 -0.06204454 0.011509186 -0.12525523 0.12937947 0.45433637 0.24059182
-0.12089294 -0.089951195 0.10300511 0.20248476 0.1050702 0.26754355 -0.18676765 -0.20696232
