networks/cifar/convSmallRELU__DiffAI.onnx (onnx, 502302 bytes, 8 tensors)

1.bias f4 [16]
0	0xbddf62a9	-0.1090749
1	0x3ee2b031	0.44275048
2	0x3acb3c6d	0.0015505679
3	0x3c1f3e99	0.009719514
4	0xbc869f94	-0.016433515
5	0x3f14c3c5	0.5811122
6	0xbaaeb793	-0.0013329856
7	0x3f139e49	0.576634
8	0x872e7d74	-1.3127172e-34
9	0xbe5a4355	-0.21314748
10	0xbedacd62	-0.4273482
11	0xbeacc3cf	-0.3374314
12	0xbe9da425	-0.30789295
13	0xbf028b02	-0.5099336
14	0xbd25ef98	-0.040511698
15	0x3d2c06df	0.04199874

1.weight f4 [16, 3, 4, 4]
0	0x3983d8d7	0.00025147825
1	0x39aa222e	0.00032450393
2	0x3855ff9f	5.1021223e-05
3	0x3a0f21cf	0.0005460055
4	0xb9ffc20e	-0.00048781972
5	0xb99da806	-0.0003007056
6	0xba6f9dd0	-0.00091406424
7	0xba0ef337	-0.0005453112
8	0xbe2b0963	-0.167028
9	0xbe1be3f5	-0.15223677
10	0xbe27087c	-0.1631183
11	0xbdf8e852	-0.121536866
12	0xbc43ea0e	-0.011957658
13	0xba9211b9	-0.0011144198
14	0xbada04d9	-0.0016633525
15	0xbab81513	-0.0014044367
16	0x3b3b064c	0.0028537689
17	0x3bab397b	0.005225358
18	0x3b8ad66d	0.0042369873
19	0x3bbc6727	0.0057496014
20	0x39e68b93	0.0004397301
21	0x39cbd1c9	0.0003887548
22	0x39cd8581	0.00039200115
23	0x3a2eb003	0.0006663801
24	0x397089c1	0.00022939501
25	0x39bd72be	0.0003613438
26	0x38f43e30	0.0001164641
27	0x3a104cff	0.00055046374
28	0xba7de6a7	-0.0009685554
29	0xb926f2c9	-0.00015921438
30	0xb8e48f15	-0.00010898538
31	0x397183ef	0.000230327
32	0x3e42f508	0.19038785
33	0x3e41002d	0.18847723
34	0x3e32f9b1	0.17478062
35	0x3e21e3e3	0.15809588
36	0x3a962133	0.0011453986
37	0x3aa1e97b	0.0012352908
38	0x3a8f60f4	0.0010938928
39	0x3a946bf7	0.001132368
40	0x3989cbd8	0.00026282552
41	0x3a1ad2fd	0.00059060735
42	0x37a5a8ca	1.9748131e-05
43	0x3a9060cb	0.0011015175
44	0xba2b5170	-0.00065352675
45	0x3997da09	0.00028963413
46	0xb7720b63	-1.4426975e-05
47	0x3a5737a9	0.0008209893
48	0x3a847fe1	0.0010108912
49	0x3b06742b	0.002051602
50	0x3aa68a2e	0.0012705976
51	0x3a99dba6	0.0011738434
52	0x3a1c148f	0.0005953991
53	0x3a44c320	0.00075058825
54	0x3ad6ae1f	0.0016378796
55	0x3a872765	0.0010311423
56	0x3a019280	0.00049427897
57	0x3aed8ea7	0.0018124179
58	0x3b19fcd8	0.0023496654
59	0x3b0c47f6	0.0021405197
60	0xb8b13a12	-8.450834e-05
61	0x39c00fe2	0.00036632927
62	0x3ad5481a	0.0016272098
63	0x3ade59f9	0.001696407
64	0x3af42854	0.0018627741
65	0x3b466c8a	0.0030277097
66	0x3b0dc6ad	0.0021633313
67	0x3a9e37c3	0.0012071062
68	0x3aee4ca4	0.00181808
69	0x3b583183	0.0032988496
70	0x3b2c06a9	0.0026249087
71	0x3aec7351	0.0018039738
72	0x3a561a51	0.00081673736
73	0x3b0adf85	0.0021190357
74	0x3b384b0d	0.0028120906
75	0x3b1e752f	0.0024178734
76	0x398d4f1c	0.00026952557
77	0x3a8c4871	0.0010702742
78	0x3b138218	0.0022507962
79	0x3b0a3bac	0.0021092696
80	0x3ea2649f	0.31717393
81	0x3eb0d5f2	0.34538227
82	0x3e2aa33c	0.16663831
83	0x3beccced	0.0072265775
84	0x3ebbb8b3	0.36664352
85	0x3edb719c	0.42860115
86	0x3e5f14cd	0.21785279
87	0x3c254f95	0.010089775
88	0x3e771244	0.24128062
89	0x3e8d58c7	0.27606794
90	0x3e037e2a	0.12841097
91	0x3bd4bcc9	0.0064922315
92	0x3db71258	0.08939046
93	0x3de8a014	0.113586575
94	0x3d348f35	0.044081885
95	0x3bc9cb8b	0.0061582974
96	0x39e62f7a	0.0004390439
97	0x379f2dcf	1.8975608e-05
98	0x3922e21d	0.00015533758
99	0x39231d52	0.00015555814
100	0x388a9f63	6.610041e-05
101	0xb9829983	-0.00024909907
102	0xb98f8a69	-0.0002737821
103	0x3902656e	0.00012435552
104	0xb96b6bbd	-0.00022451482
105	0xbb917352	-0.004438796
106	0xbb44e0ac	-0.0030041141
107	0x378a5307	1.6489545e-05
108	0xb924f52a	-0.0001573159
109	0xbbaf5cac	-0.0053516235
110	0xbb85720e	-0.0040724343
111	0xba17a812	-0.00057852373
112	0xb87812e7	-5.914541e-05
113	0xba082382	-0.00051932794
114	0xba1ccca9	-0.00059814245
115	0x388e89a3	6.7967245e-05
116	0xb96cf900	-0.00022599474
117	0xbe25b376	-0.1618174
118	0xbe169e60	-0.14708853
119	0xbb047759	-0.0020212738
120	0xbad38f36	-0.0016140703
121	0xbe7275b3	-0.23677711
122	0xbe6bce2a	-0.23027864
123	0xbb4f79cb	-0.0031658288
124	0xbaf6cc34	-0.0018829168
125	0xbe2cbcd7	-0.16868912
126	0xbe2a9ed2	-0.16662148
127	0xbb7e246b	-0.003877903
128	0xba2e1382	-0.000664048
129	0xba95e348	-0.0011435533
130	0xba8356de	-0.0010020395
131	0xba290ab3	-0.00064484327
132	0xba263026	-0.0006339572
133	0xbc8fcb47	-0.017552985
134	0xbc0a95c6	-0.00845856
135	0xba0cf9de	-0.0005377809
136	0xba3c0b7c	-0.0007173342
137	0xbd1d9e44	-0.038481012
138	0xbd5523fc	-0.05203627
139	0xba11753c	-0.00055487803
140	0xba5a99f5	-0.00083389814
141	0xbc792b02	-0.015208008
142	0xbc8e4790	-0.017368108
143	0xba3b7b94	-0.00071518985
144	0x3a898160	0.0010490827
145	0x3ab1a490	0.0013553072
146	0x3aad6733	0.0013229608
147	0x3abe038d	0.0014496908
148	0x3a80edcf	0.0009836497
149	0x3a98f795	0.0011670465
150	0x3a8edbd4	0.0010899254
151	0x3a8ab0ee	0.0010581294
152	0x399671a6	0.00028694904
153	0x3a3813b4	0.0007021979
154	0x3a2d0385	0.0006599951
155	0x3a359405	0.00069266587
156	0xbe0d62b5	-0.13807185
157	0xbe02a71b	-0.12759058
158	0xbe03ee0c	-0.12883776
159	0xbde770f1	-0.11300839
160	0x3aad43dd	0.0013219077
161	0x3aca37b4	0.0015427978
162	0x3ad99199	0.0016599178
163	0x3af5ae0a	0.0018743884
164	0x3ab18eb7	0.0013546561
165	0x3acb7ed1	0.0015525465
166	0x3aea22fd	0.001786321
167	0x3af66ab9	0.0018800116
168	0x3a8e1cc4	0.0010842313
169	0x3a9d4a6f	0.0012000332
170	0x3ab43760	0.0013749413
171	0x3ad6fcc1	0.0016402231
172	0xbc6e4566	-0.014542913
173	0xbbc37c4a	-0.005965744
174	0xbae7a0cf	-0.0017671826
175	0xbc8bc4a7	-0.017061545
176	0x3c68254c	0.0141690485
177	0x3c387a39	0.011259609
178	0x3b62e32e	0.0034620273
179	0x3c9873db	0.018609932
180	0x3db58c1a	0.08864613
181	0x3df2c79d	0.118544795
182	0x3dcc3987	0.0997191
183	0x3da329e8	0.07966977
184	0x3afca2e7	0.0019274623
185	0x3b18c597	0.0023311132
186	0x3b04c799	0.002026057
187	0x3b134d61	0.0022476541
188	0x3a578e46	0.00082227995
189	0x3aad2890	0.0013210941
190	0x3a960269	0.001144481
191	0x3accffc8	0.0015640194
192	0xb9d1b9aa	-0.00040001917
193	0xb975f171	-0.00023454965
194	0xb9ebb74d	-0.00044959263
195	0xba1d7ff0	-0.0006008139
196	0xba1caf2a	-0.0005977029
197	0xba0b09d0	-0.00053038914
198	0xb9b7d2af	-0.00035061451
199	0xba3c5266	-0.0007183909
200	0xba76a78f	-0.00094091234
201	0xb9fd7804	-0.0004834534
202	0xba3201ae	-0.00067904114
203	0xba68c90a	-0.0008880055
204	0xba412e5f	-0.00073692756
205	0xba2b843e	-0.0006542838
206	0xba2c48ce	-0.0006572128
207	0xba6092b5	-0.0008566783
208	0x399144ec	0.00027707906
209	0x39bef083	0.0003641882
210	0x39dd0270	0.0004215422
211	0x3939359f	0.0001766295
212	0x3806916c	3.2083524e-05
213	0x397076f5	0.00022932499
214	0x39aa3213	0.00032462235
215	0xb9039e39	-0.00012552076
216	0x39a6a9dd	0.00031788545
217	0x39d20a11	0.0004006182
218	0x3a0675e5	0.0005129262
219	0x39bffa80	0.00036616996
220	0x39ee89e9	0.00045497649
221	0x3a14a0f5	0.00056697364
222	0x3a17063a	0.00057611207
223	0x39f32671	0.00046377213
224	0xba1bd6ec	-0.00059448066
225	0xb96d501a	-0.00022631921
226	0xb98e92a0	-0.00027193595
227	0xb9e53a92	-0.00043721922
228	0xba0de1e9	-0.00054123864
229	0xb9ca7db6	-0.00038622104
230	0xb982f4cc	-0.0002497792
231	0xb9cb9574	-0.00038830529
232	0xb702c38e	-7.794135e-06
233	0x392bc8a2	0.00016382572
234	0x39575df7	0.00020539002
235	0x3965611d	0.0002187532
236	0xb943d23e	-0.0001867497
237	0x3861dcc7	5.3849795e-05
238	0x3901426f	0.00012327147
239	0xb727a7d1	-9.9930485e-06
240	0xb917704a	-0.00014442313
241	0xb95aef83	-0.00020879325
242	0xb89667ff	-7.171928e-05
243	0xb9517c7e	-0.0001997817
244	0xb85483dc	-5.0667542e-05
245	0xb82c3d50	-4.1065097e-05
246	0xb874191d	-5.8197522e-05
247	0xb8d93308	-0.00010356872
248	0xb83aadfa	-4.4507884e-05
249	0xb7c1b95c	-2.3093708e-05
250	0xb86c4cfd	-5.6338486e-05
251	0xb8907984	-6.889089e-05
252	0xb8b373a2	-8.5569234e-05
253	0xb7d71e24	-2.5644033e-05
254	0x37c6f490	2.3717323e-05
255	0x38975daf	7.217691e-05

3.bias f4 [32]
0	0xa9c97bcb	-8.947668e-14
1	0x2cfad156	7.1286683e-12
2	0x346164eb	2.0991472e-07
3	0xb3006af3	-2.9899592e-08
4	0xb4199e61	-1.4306853e-07
5	0x35a02613	1.193201e-06
6	0x38a5e0e8	7.909705e-05
7	0x36c5dee3	5.897005e-06
8	0x30c9db39	1.4686982e-09
9	0xb8cf2d17	-9.878928e-05
10	0x329b3617	1.8068972e-08
11	0xaf8c3c01	-2.5508487e-10
12	0xb32e1b3a	-4.0537294e-08
13	0xb29bc185	-1.8132377e-08
14	0xb42efb82	-1.6296511e-07
15	0xa67c9c57	-8.7641943e-16
16	0x33b36a78	8.3547036e-08
17	0xb371bee8	-5.6285813e-08
18	0x3651b5e9	3.1249313e-06
19	0xb51fe806	-5.9569754e-07
20	0x34acf1ba	3.2213376e-07
21	0x36b9cebb	5.5374962e-06
22	0x30267ace	6.0564964e-10
23	0x3461f42c	2.1043587e-07
24	0x2e3467d6	4.1019486e-11
25	0x3207dc8c	7.908181e-09
26	0x34dd9c06	4.127798e-07
27	0xb6c9be98	-6.012455e-06
28	0xb329c962	-3.9531535e-08
29	0x33a3ada5	7.621865e-08
30	0x19a0f243	1.6641461e-23
31	0x36748af1	3.6439708e-06

3.weight f4 [32, 16, 4, 4]
0	0xba215423	-0.00061542
1	0xba2a4bba	-0.00064962695
2	0xba012fa5	-0.0004928059
3	0xb9f2e31d	-0.0004632705
4	0xb992ded6	-0.00028013316
5	0xb93b34b3	-0.00017853342
6	0xb918955d	-0.00014551492
7	0xb8c6ac7f	-9.4735056e-05
8	0xb9be06b2	-0.00036244612
9	0xb9b0cf6d	-0.0003372388
10	0xb9943d7a	-0.00028274563
11	0xb94b05a4	-0.0001936169
12	0xb8d43048	-0.00010117941
13	0xb893895f	-7.0350936e-05
14	0xb87b568f	-5.9923677e-05
15	0xb8758540	-5.853665e-05
16	0xbc61ca31	-0.013781116
17	0xbc5a9b6e	-0.013342721
18	0xbc58a0e4	-0.013221953
19	0xbc5a6f68	-0.013332225
20	0xbc4d685a	-0.012537086
21	0xbc4357ba	-0.011922771
22	0xbc40603f	-0.011741697
23	0xbc3f3d8a	-0.011672387
24	0xbc477547	-0.012173957
25	0xbc3cec76	-0.011530986
26	0xbc326e86	-0.010890609
27	0xbc29d041	-0.010364593
28	0xbc26ef9c	-0.010188963
29	0xbc21e334	-0.00988083
30	0xbc1c4e56	-0.009540161
31	0xbc037aba	-0.008024866
32	0xbb441bdd	-0.0029923834
33	0xbb50660d	-0.0031799108
34	0xbb90ef2b	-0.0044230423
35	0xbb873a0c	-0.004126793
36	0xbb40399b	-0.002933121
37	0xbb60ff09	-0.00343317
38	0xbb9a22d3	-0.0047038584
39	0xbb93f4cc	-0.004515266
40	0xbb5b2aa6	-0.0033442168
41	0xbb81be13	-0.003959426
42	0xbba6196b	-0.005068948
43	0xbbb27b96	-0.0054468615
44	0xbb57e4ca	-0.0032942765
45	0xbb8f315b	-0.0043698973
46	0xbbb36ed4	-0.005475858
47	0xbbc301ed	-0.0059511573
48	0xb9458ea1	-0.00018840517
49	0xb92a34a1	-0.00016232069
50	0xb91c53f6	-0.00014908597
51	0xb8f6ee6a	-0.00011774602
52	0xb97412a3	-0.00023276596
53	0xb97a309a	-0.00023859963
54	0xb93b9366	-0.0001788862
55	0xb937459f	-0.00017478176
56	0xb8f99edb	-0.000119028344
57	0xb8cdf5a9	-9.8209195e-05
58	0xb89eaa04	-7.565695e-05
59	0xb8993cd5	-7.3069394e-05
60	0xb92d15a6	-0.0001650663
61	0xb931e5a5	-0.00016965585
62	0xb9119eaa	-0.00013887385
63	0xb8ecf3c6	-0.00011298763
64	0xb15fe4e0	-3.2580871e-09
65	0xb19e4868	-4.606637e-09
66	0xb0d72f1d	-1.5656699e-09
67	0xb1981f0e	-4.4273127e-09
68	0xb1c24b5d	-5.654711e-09
69	0xb1cb37cd	-5.9144214e-09
70	0xb1222fde	-2.3601312e-09
71	0xb191b8fb	-4.2410853e-09
72	0x2ffd11c5	4.6033058e-10
73	0xb1313445	-2.5786602e-09
74	0x3152f697	3.0699192e-09
75	0xb1ae6cd3	-5.0764384e-09
76	0x2eed25ca	1.0784225e-10
77	0xb19df25e	-4.5968553e-09
78	0xb08b4820	-1.013408e-09
79	0x3187d04a	3.952697e-09
80	0xbad8cd90	-0.0016540755
81	0xbad8f640	-0.001655288
82	0xbad9364f	-0.0016571971
83	0xbad951ce	-0.0016580166
84	0xbad9aa49	-0.0016606535
85	0xbada4f9c	-0.0016655806
86	0xbadb3973	-0.0016725495
87	0xbadbd63b	-0.001677222
88	0xbada1797	-0.001663911
89	0xbadb8c2f	-0.0016750152
90	0xbadd1006	-0.0016865737
91	0xbade5d8f	-0.0016965138
92	0xbadab0b7	-0.0016684745
93	0xbadccd77	-0.0016845901
94	0xbaded251	-0.0016999935
95	0xbae07d4f	-0.0017127189
96	0x39418ee4	0.00018459145
97	0x88c39399	-1.1770836e-33
98	0x1e346190	9.549296e-21
99	0xb88e31d7	-6.780371e-05
100	0x1890b3b7	3.7404593e-24
101	0x0d139b12	4.548453e-31
102	0x2726aa2d	2.312938e-15
103	0x2b228f85	5.7753135e-13
104	0x1391e3b8	3.6827694e-27
105	0x0ec5d146	4.8765772e-30
106	0x38d6decb	0.000102458136
107	0x0d32a600	5.50503e-31
108	0x152b56fe	3.46018e-26
109	0x3a03c487	0.0005026538
110	0x38836707	6.265757e-05
111	0xb6bb4bb7	-5.5818487e-06
112	0xbad52eb8	-0.0016264534
113	0xbad561be	-0.001627974
114	0xbad59675	-0.001629545
115	0xbad5a97b	-0.001630112
116	0xbad618f7	-0.0016334344
117	0xbad6c4e7	-0.0016385586
118	0xbad7af2e	-0.0016455406
119	0xbad83af2	-0.0016497059
120	0xbad69a5e	-0.0016372909
121	0xbad81196	-0.0016484733
122	0xbad996de	-0.0016600748
123	0xbadadba5	-0.0016697539
124	0xbad754e5	-0.0016428499
125	0xbad9687c	-0.0016586925
126	0xbadb8e89	-0.0016750853
127	0xbadd1ea2	-0.0016870091
128	0x9ab52125	-7.4913393e-23
129	0x1f7d47f7	5.3634362e-20
130	0x000e409b	1.308873e-39
131	0x391b867e	0.00014832054
132	0x2c879db5	3.8544398e-12
133	0xb80327e6	-3.1269992e-05
134	0xb4cc98a1	-3.8109013e-07
135	0xa7d72851	-5.97182e-15
136	0x11db9015	3.4640905e-28
137	0xa5968bdf	-2.6115632e-16
138	0x356928b2	8.6858483e-07
139	0x38759278	5.854896e-05
140	0x3327ed07	3.9098293e-08
141	0x37c087f8	2.2951499e-05
142	0xa0a2be98	-2.7569992e-19
143	0x968ac5bb	-2.2419888e-25
144	0xb8426804	-4.6350076e-05
145	0xb88ce20a	-6.717823e-05
146	0xb8b231c9	-8.4969746e-05
147	0xb885412b	-6.354073e-05
148	0xb8a6c5a2	-7.952309e-05
149	0xb880d117	-6.142462e-05
150	0xb8a53ec5	-7.879505e-05
151	0xb886f640	-6.4354856e-05
152	0xb79d7291	-1.8769208e-05
153	0xb7346f19	-1.0754703e-05
154	0xb76c82f2	-1.4097184e-05
155	0xb6c3092a	-5.8125197e-06
156	0xb7aaad06	-2.034615e-05
157	0xb72b626a	-1.0215308e-05
158	0xb771d1b5	-1.4413546e-05
159	0xb71e8d85	-9.450484e-06
160	0x3333885b	4.18007e-08
161	0x332e05c8	4.051779e-08
162	0x32e8b7a0	2.7091858e-08
163	0x32ed27e1	2.7608566e-08
164	0xb04d2da8	-7.4643447e-10
165	0x330c65fd	3.2689048e-08
166	0xb202cc4e	-7.613449e-09
167	0x3259b61c	1.2672469e-08
168	0x31f35d7e	7.0828596e-09
169	0x329879cd	1.7750518e-08
170	0x312a0083	2.4738547e-09
171	0xb39d0864	-7.3124085e-08
172	0xb4087639	-1.2708996e-07
173	0xb44af84c	-1.8903046e-07
174	0xb3ff1faf	-1.1880126e-07
175	0xb431a57b	-1.6544611e-07
176	0x2f1f411d	1.4484099e-10
177	0x332070b8	3.735542e-08
178	0x31b6ca14	5.3198708e-09
179	0x35074257	5.0387956e-07
180	0x31469ec8	2.8903049e-09
181	0x34b05765	3.2846143e-07
182	0x337d0df6	5.891885e-08
183	0x35455a00	7.3519186e-07
184	0x321dc94e	9.184374e-09
185	0x34ff5777	4.756109e-07
186	0x338b1bec	6.477771e-08
187	0x353ab0d7	6.9547735e-07
188	0x327df24e	1.4781632e-08
189	0x34d67a48	3.9949578e-07
190	0x33bf8c91	8.9196995e-08
191	0x351bbd4b	5.8017457e-07
192	0xb35065d9	-4.8521404e-08
193	0xb3130785	-3.4232944e-08
194	0xb3432b0c	-4.5441126e-08
195	0xb326bb21	-3.882008e-08
196	0xb32eca40	-4.0696477e-08
197	0xb37a9ebf	-5.835204e-08
198	0xb342652f	-4.526117e-08
199	0xb38647e7	-6.25294e-08
200	0xb0a799f2	-1.2194603e-09
201	0xb2b5569e	-2.1110562e-08
202	0x31f0b1ea	7.005146e-09
203	0xb2b8569b	-2.1459803e-08
204	0xb33af407	-4.352844e-08
205	0xb32d87b5	-4.0403126e-08
206	0xb2ee74fa	-2.7760041e-08
207	0xb34fdc9a	-4.839658e-08
208	0xb10f1774	-2.082257e-09
209	0x32be8f60	2.218411e-08
210	0x339be4f0	7.2593934e-08
211	0x347030d1	2.2369501e-07
212	0x31e884e1	6.7671952e-09
213	0x32e7e881	2.699767e-08
214	0x32cef8f8	2.4094774e-08
215	0xb2a3ed7d	-1.9083695e-08
216	0xb1f6d59d	-7.1838273e-09
217	0x34851d69	2.479458e-07
218	0xb21e853f	-9.227107e-09
219	0xb217937b	-8.82289e-09
220	0x32c4b89f	2.2901359e-08
221	0x32df29ee	2.5979684e-08
222	0x320069f9	7.474676e-09
223	0x3308d852	3.186171e-08
224	0xba1a018e	-0.00058748655
225	0xba4107ce	-0.0007363529
226	0xba1b7df3	-0.00059315487
227	0xba2620ea	-0.0006337302
228	0xb9ef5876	-0.0004565154
229	0xba0e4b2b	-0.0005428071
230	0xb9f7f640	-0.00047294982
231	0xba075c21	-0.00051635696
232	0xb9bfd3e1	-0.0003658822
233	0xb9ce819c	-0.00039387948
234	0xb9c697b3	-0.00037878528
235	0xb9c807bf	-0.00038152744
236	0xb99571a3	-0.0002850416
237	0xb970426d	-0.00022912929
238	0xb98c9462	-0.00026813435
239	0xb9496108	-0.00019205
240	0xbba1fe3a	-0.0049436362
241	0xbbc2183d	-0.0059232996
242	0xbbd5a011	-0.0065193255
243	0xbbd80987	-0.0065929326
244	0xbb9093a6	-0.0044121323
245	0xbbb18c3d	-0.005418329
246	0xbbce06cc	-0.0062874313
247	0xbbdb81de	-0.006698831
248	0xbbabcb81	-0.0052427654
249	0xbbcc6158	-0.00623719
250	0xbbf84a1a	-0.007577193
251	0xbc01ab6f	-0.007914408
252	0xbbb2b92d	-0.0054542036
253	0xbbdf6153	-0.006817022
254	0xbc03a105	-0.0080339955
255	0xbc0a186a	-0.008428672

6.bias f4 [100]
0	0x376fbb08	1.4289057e-05
1	0xb7294d54	-1.0091189e-05
2	0xb3c6889b	-9.244942e-08
3	0xb9a4bd99	-0.0003142178
4	0x2f5af928	1.9915503e-10
5	0x36a4b101	4.908187e-06
6	0x319e8b34	4.6142308e-09
7	0x38e763a9	0.000110335015
8	0xb7a70df5	-1.991445e-05
9	0x36aa85e9	5.081984e-06
10	0xb93a97af	-0.00017794849
11	0xa2648b28	-3.097343e-18
12	0xb95ed9f2	-0.00021252761
13	0x2fc50078	3.5834424e-10
14	0xaa163c81	-1.3343668e-13
15	0x3901473d	0.00012328937
16	0xb86f5cad	-5.706835e-05
17	0x21f9a9d4	1.6917849e-18
18	0x38ba406f	8.881173e-05
19	0x319cd167	4.564004e-09
20	0xb992a12f	-0.0002796738
21	0xb7cf71a9	-2.472925e-05
22	0xb7ae4768	-2.0775668e-05
23	0xb901471e	-0.00012328892
24	0xb93099e9	-0.00016842004
25	0xafc23e75	-3.5332773e-10
26	0xb9303320	-0.00016803714
27	0x375352f7	1.2595897e-05
28	0xb9a2553e	-0.00030962558
29	0xb8e5bf0f	-0.00010955158
30	0xb8b37dc8	-8.558814e-05
31	0xb96a4cd5	-0.00022344601
32	0xae9de793	-7.180669e-11
33	0xaa388608	-1.6388984e-13
34	0x3905a75c	0.00012746215
35	0xaf91e4aa	-2.6537822e-10
36	0xb2bd2194	-2.2017765e-08
37	0xb993e30a	-0.00028207182
38	0x3053554f	7.6882584e-10
39	0xadcdcb92	-2.3396205e-11
40	0x2a64edbf	2.0332953e-13
41	0x392854a2	0.00016053257
42	0xb5e5e72f	-1.7129113e-06
43	0xb494ef72	-2.7741368e-07
44	0xb87ff89a	-6.1028266e-05
45	0x39557012	0.00020355012
46	0xb1afe1a4	-5.1188227e-09
47	0x99e8ef28	-2.4084832e-23
48	0xb2cfb352	-2.4179517e-08
49	0x17259341	5.3500236e-25
50	0x2f498fcc	1.833193e-10
51	0x36a02709	4.772916e-06
52	0xb265a843	-1.3367813e-08
53	0xb07f6192	-9.2907115e-10
54	0x399e1553	0.00030151996
55	0xb8cacfc2	-9.6708085e-05
56	0x3896391b	7.163194e-05
57	0x356e6409	8.880748e-07
58	0xb9633b41	-0.00021670481
59	0xb2078749	-7.8887945e-09
60	0x32126289	8.520723e-09
61	0x38d45bb3	0.00010126028
62	0xb9a5cd77	-0.00031624336
63	0xb8f0a08b	-0.00011473995
64	0x3482d3b1	2.4368413e-07
65	0x2e8b5030	6.335232e-11
66	0x394680c9	0.00018930728
67	0xb7a28002	-1.9371513e-05
68	0x00000031	6.9e-44
69	0x2001307b	1.0942766e-19
70	0x39979230	0.00028909883
71	0x35c29fe1	1.4500657e-06
72	0x39d367c5	0.0004032237
73	0xb6a20873	-4.82896e-06
74	0xb56bdcda	-8.7865703e-07
75	0x890c29af	-1.6871487e-33
76	0x3912d175	0.00014001674
77	0x38c6cf19	9.479951e-05
78	0x996012d3	-1.158433e-23
79	0x3487af9f	2.527349e-07
80	0x3836dce9	4.359792e-05
81	0x92145f7a	-4.681825e-28
82	0x37e647a6	2.74515e-05
83	0x37085f5e	8.128436e-06
84	0x3532ad5a	6.6562427e-07
85	0x3832af98	4.260204e-05
86	0x36138096	2.1979554e-06
87	0x38599db5	5.1883708e-05
88	0xb7eed0a3	-2.8468965e-05
89	0xb973d010	-0.00023251795
90	0xb8707177	-5.732613e-05
91	0x393e38bd	0.00018140949
92	0x08b4a1de	1.0871411e-33
93	0xa38126bd	-1.4002614e-17
94	0x394ed45f	0.00019724805
95	0xb92f14fd	-0.0001669712
96	0x390b1922	0.00013265436
97	0x385a3133	5.202107e-05
98	0xb9c131b0	-0.0003684885
99	0x80098c72	-8.76902e-40

6.weight f4 [100, 1152]
0	0x365c333d	3.281238e-06
1	0x339e0984	7.359179e-08
2	0x372f8d53	1.0463717e-05
3	0xb2bfc1e8	-2.2323505e-08
4	0x37430da0	1.1626078e-05
5	0x36f8af0b	7.4113536e-06
6	0x3754423f	1.2651609e-05
7	0x3523644b	6.086818e-07
8	0x390ec477	0.00013615364
9	0xb6c86f87	-5.973448e-06
10	0x368c3490	4.178444e-06
11	0x377f9866	1.5234667e-05
12	0xb8408db7	-4.590835e-05
13	0xb6c2cdd2	-5.805611e-06
14	0x3703e9f2	7.862678e-06
15	0x351eaeb1	5.9113796e-07
16	0x3961e5f6	0.00021543339
17	0x3313a504	3.4376185e-08
18	0x380017fd	3.053992e-05
19	0x3578263e	9.244285e-07
20	0x3561ff19	8.419025e-07
21	0xb6bfd56d	-5.7170896e-06
22	0x34b3e821	3.3510244e-07
23	0x36b006be	5.2459936e-06
24	0x361f0d89	2.3700725e-06
25	0x317ec63f	3.7074555e-09
26	0x35360777	6.7811146e-07
27	0xb90a52f9	-0.00013191615
28	0x340dd530	1.3209205e-07
29	0x395856fc	0.0002063177
30	0xb7dd7001	-2.6397409e-05
31	0x3171c73a	3.5183363e-09
32	0xb76a7020	-1.3973593e-05
33	0xb996c5cb	-0.00028757597
34	0x31d80b2d	6.287698e-09
35	0x321f2f6b	9.2658e-09
36	0xb60c896a	-2.0941611e-06
37	0x35603366	8.35213e-07
38	0xb3702754	-5.5915123e-08
39	0x335dc85b	5.1637794e-08
40	0xb5145d36	-5.5269936e-07
41	0x37bdcddd	2.2626418e-05
42	0x3252a512	1.2261141e-08
43	0xa98f418a	-6.361845e-14
44	0xb521446f	-6.007676e-07
45	0x3948805f	0.00019121308
46	0x304e0d6a	7.4961426e-10
47	0xb3b7afb6	-8.553563e-08
48	0x33ae987b	8.1302424e-08
49	0x392188d8	0.00015405135
50	0x38aa1531	8.110179e-05
51	0xb8212371	-3.84184e-05
52	0x394fa728	0.00019803329
53	0x2d07eb5b	7.726121e-12
54	0x303ee939	6.9453027e-10
55	0x35356796	6.757849e-07
56	0xb7158873	-8.912862e-06
57	0xaf92cdae	-2.670339e-10
58	0x2b86362a	9.536306e-13
59	0xb19bffba	-4.5401665e-09
60	0xb4cb6bde	-3.789018e-07
61	0x391a7131	0.00014728752
62	0xb3ceb2d2	-9.62515e-08
63	0x2e9ae8f6	7.0444914e-11
64	0xb6ca5fb3	-6.03121e-06
65	0x355bf7cc	8.194445e-07
66	0x355454ec	7.909973e-07
67	0xb0b037da	-1.2821559e-09
68	0xb778ab00	-1.4821766e-05
69	0x35a23937	1.2086592e-06
70	0x31365705	2.653395e-09
71	0x35ca9eb1	1.5096358e-06
72	0xb83852f0	-4.394626e-05
73	0x380bf7c2	3.3370925e-05
74	0x31d7966e	6.2744254e-09
75	0x34366688	1.6987372e-07
76	0x35ce124a	1.5353519e-06
77	0x36b629b7	5.428879e-06
78	0x36f9762b	7.434535e-06
79	0x3886cdf9	6.427983e-05
80	0x307ac233	9.1225444e-10
81	0x372113bc	9.600943e-06
82	0x31aaac96	4.967272e-09
83	0x31d736f6	6.263572e-09
84	0x35369564	6.8017675e-07
85	0x30f4a816	1.780111e-09
86	0x325c8ba4	1.2837436e-08
87	0x31dc3f0c	6.4100103e-09
88	0x3731b930	1.0593139e-05
89	0xb4e11e95	-4.1931767e-07
90	0xb5d3db94	-1.5784631e-06
91	0xb4c41fb1	-3.6530903e-07
92	0xb675360a	-3.65393e-06
93	0xb4cddd13	-3.8345078e-07
94	0xb6d0d8b6	-6.2241115e-06
95	0xb119b5a2	-2.2367677e-09
96	0xb31aab79	-3.6011873e-08
97	0xb607e207	-2.0248133e-06
98	0xb6983abe	-4.5367915e-06
99	0x2fe850db	4.2258005e-10
100	0x2ee4d14a	1.0405417e-10
101	0x2f308dd2	1.6057491e-10
102	0x394f3039	0.00019759023
103	0xb51f4d26	-5.934438e-07
104	0x2f95fab1	2.728107e-10
105	0xad106935	-8.208813e-12
106	0x30f3ce51	1.7739216e-09
107	0xb1bf7ebf	-5.573241e-09
108	0x34a02d81	2.983543e-07
109	0x85bef7ec	-1.7958586e-35
110	0x3673b372	3.6314273e-06
111	0x36cfcf14	6.193188e-06
112	0x31d84f45	6.2954393e-09
113	0x1c0d3d7c	4.6732453e-22
114	0xb1ccd111	-5.9609495e-09
115	0xb743643e	-1.1646245e-05
116	0x3449b69d	1.8786018e-07
117	0x26ba123a	1.2911283e-15
118	0xb8bf4caf	-9.121873e-05
119	0x2c4c3fbd	2.9025525e-12
120	0xb03d0708	-6.876779e-10
121	0xb2e89cfd	-2.7079745e-08
122	0x9d501d01	-2.7543565e-21
123	0x91dc97ce	-3.4803437e-28
124	0x36da6407	6.508551e-06
125	0xaf06b146	-1.2250209e-10
126	0xaf02da69	-1.1901026e-10
127	0x202f98f1	1.487368e-19
128	0xaaf29c36	-4.3096229e-13
129	0x31104ec5	2.0999533e-09
130	0x967222ca	-1.9559582e-25
131	0x2981a506	5.757378e-14
132	0xa5d41e35	-3.6796607e-16
133	0xb961514f	-0.00021487962
134	0x2c50708f	2.962106e-12
135	0x06dedfb2	8.383581e-35
136	0x0dbbc97c	1.157327e-30
137	0x2733ffec	2.4979976e-15
138	0xb94cbe02	-0.0001952574
139	0x1fa6642b	7.046945e-20
140	0xb35641ef	-4.9885724e-08
141	0xb2266d28	-9.687291e-09
142	0x34d3a9a8	3.9425254e-07
143	0xb2134c8c	-8.573931e-09
144	0x2e88a26b	6.213415e-11
145	0xb4d49f9d	-3.960421e-07
146	0xb1e55a0b	-6.675014e-09
147	0x2e0b3d26	3.165925e-11
148	0xb232bf29	-1.0404428e-08
149	0xb62220b6	-2.4158921e-06
150	0xae8dae7d	-6.442933e-11
151	0xb010a769	-5.26248e-10
152	0xb620b21a	-2.3945527e-06
153	0x395a6cbf	0.00020830611
154	0x3008b581	4.9734444e-10
155	0xb7f04819	-2.8643803e-05
156	0x35a4426f	1.2238287e-06
157	0x368a0c55	4.114156e-06
158	0x2f83e36a	2.3990349e-10
159	0x35f74942	1.8424255e-06
160	0xb6f6f72d	-7.3601464e-06
161	0xb6f3ec5d	-7.2694806e-06
162	0xb10108b6	-1.8776922e-09
163	0xb95883f7	-0.00020648526
164	0xb5b4c45f	-1.3468197e-06
165	0xb6981742	-4.5326606e-06
166	0xb6731317	-3.6220933e-06
167	0xb571c588	-9.006694e-07
168	0x2c0f1b87	2.0336803e-12
169	0xb23d855e	-1.1031572e-08
170	0xb4367f02	-1.6996276e-07
171	0xb6a5f262	-4.9456003e-06
172	0x36a846be	5.0150256e-06
173	0xb977fc5f	-0.00023649771
174	0x34b6fd19	3.4084294e-07
175	0xaf2ab26e	-1.5524801e-10
176	0xb2078ae3	-7.889613e-09
177	0xb5df5fcb	-1.6642674e-06
178	0xb4ea2785	-4.361465e-07
179	0x3598878c	1.1364332e-06
180	0x35d32afe	1.5733237e-06
181	0x31c1f5ac	5.644969e-09
182	0x3250ae37	1.2146805e-08
183	0x31f5bad3	7.151678e-09
184	0x2d29ea2f	9.658537e-12
185	0xaeb0d24f	-8.040912e-11
186	0x3951cb26	0.00020007472
187	0x2c8c20d3	3.9826835e-12
188	0xabdd552f	-1.5726638e-12
189	0x3426470c	1.5485801e-07
190	0x3849aa6b	4.808085e-05
191	0xb2141c5a	-8.62118e-09
192	0xb92c3fbb	-0.0001642694
193	0xb88c5a27	-6.6925124e-05
194	0xb6a6bda2	-4.9692617e-06
195	0x31688574	3.3836303e-09
196	0x2b097ca1	4.8845135e-13
197	0x3509ee5d	5.138334e-07
198	0x3507777f	5.046531e-07
199	0x2f33d57f	1.6355804e-10
200	0xb6cc0f9a	-6.08149e-06
201	0xb14f2d22	-3.014812e-09
202	0xb2a2f72e	-1.8971686e-08
203	0xb833659c	-4.2771557e-05
204	0x36e926fb	6.948479e-06
205	0xaf995f58	-2.7898284e-10
206	0xad866a10	-1.5281137e-11
207	0xb0f3d9c8	-1.7742474e-09
208	0xb01ac742	-5.6308036e-10
209	0x348a0fbe	2.5715957e-07
210	0xb2b24511	-2.0753335e-08
211	0xad806b2a	-1.4599506e-11
212	0xaf2c045e	-1.564486e-10
213	0xb6b13972	-5.2816986e-06
214	0x2ce89b76	6.6110962e-12
215	0xb3001fba	-2.9831178e-08
216	0x341da519	1.4681827e-07
217	0x33ac60c1	8.0269736e-08
218	0x3387dc7c	6.326533e-08
219	0x317024cf	3.494552e-09
220	0xb20cee94	-8.203319e-09
221	0xb301e52b	-3.024358e-08
222	0x343a58bf	1.7354886e-07
223	0x3406d45b	1.2556977e-07
224	0x3377aea9	5.766802e-08
225	0x3305e76d	3.1176956e-08
226	0x32c968f0	2.34472e-08
227	0x32e2640f	2.6355364e-08
228	0x33c75cbb	9.283527e-08
229	0x3339f500	4.3296495e-08
230	0xb3869672	-6.267227e-08
231	0x33451292	4.5884526e-08
232	0xb2dd24b3	-2.5744475e-08
233	0xb32ea881	-4.0665785e-08
234	0x346d07c8	2.2075176e-07
235	0x33d1080d	9.733785e-08
236	0x3390053b	6.706474e-08
237	0x339df7d6	7.355963e-08
238	0x34393f7d	1.7252565e-07
239	0x343127b9	1.649886e-07
240	0x349d5a96	2.930944e-07
241	0x35119249	5.422958e-07
242	0x35020b9a	4.8445656e-07
243	0x348c351c	2.6115674e-07
244	0x33d33ca3	9.836483e-08
245	0x3478dae1	2.3176428e-07
246	0x34e4b25b	4.259808e-07
247	0x34b2ce5b	3.3305227e-07
248	0x34549e95	1.980173e-07
249	0x3431dbd8	1.6564388e-07
250	0x3492b296	2.7324558e-07
251	0x34fa45ee	4.661701e-07
252	0xad7f3df7	-1.4508831e-11
253	0xb6fdbb73	-7.5618095e-06
254	0x36efa94c	7.142464e-06
255	0x366036e6	3.3410556e-06

8.bias f4 [10]
0	0x392764e5	0.00015963947
1	0x378d2c96	1.6829272e-05
2	0xb9d07243	-0.00039757983
3	0xb97e1017	-0.00024229322
4	0xb9ae326d	-0.00033225436
5	0xb829fb42	-4.0526742e-05
6	0xb918e9ea	-0.0001458299
7	0x3a127f61	0.0005588439
8	0x393d3c94	0.00018047012
9	0x3982fc19	0.0002498336

8.weight f4 [10, 100]
0	0x35bf157d	1.4236863e-06
1	0xbb4341a6	-0.0029793768
2	0xb682d8b8	-3.8995313e-06
3	0x3a5825a9	0.0008245358
4	0x3862bb34	5.4056945e-05
5	0xb899019a	-7.295907e-05
6	0xb70ce3e8	-8.397714e-06
7	0x3b00594c	0.0019584475
8	0x39d7b10b	0.00041139903
9	0x3d9090cb	0.07058867
10	0x3adca2b6	0.001683316
11	0x3907f4ed	0.00012965845
12	0x3a1433f0	0.0005653491
13	0x35c256b2	1.4479358e-06
14	0x38da4923	0.00010408673
15	0xbe3db07e	-0.18524358
16	0x3b6bec8f	0.0035999154
17	0x3bc7b194	0.006094167
18	0x39c1f0f6	0.00036991359
19	0x392b4403	0.00016333167
20	0x3b8aba5a	0.0042336406
21	0x3a62eee5	0.0008656814
22	0x3a123e0d	0.00055787043
23	0xbe45b66e	-0.19307873
24	0xbe1e515c	-0.15460724
25	0x388f5546	6.834655e-05
26	0xbee6173d	-0.44939604
27	0xbc1395e5	-0.009007906
28	0xbc90ca74	-0.017674662
29	0xbcd7c03f	-0.026336787
30	0xbb0f86a5	-0.0021900323
31	0xbe107c17	-0.14109837
32	0x35d664ee	1.5973617e-06
33	0xba823c1e	-0.0009936129
34	0x3b7e1dfe	0.00387752
35	0x36d53756	6.3543366e-06
36	0xb71acf13	-9.2273285e-06
37	0x3ae2d09b	0.0017304601
38	0xbb0c8fc1	-0.0021447989
39	0xbb23c245	-0.002498762
40	0xba576618	-0.0008216812
41	0xbac15b28	-0.0014751898
42	0x36419924	2.884838e-06
43	0xb80bf2b6	-3.3366225e-05
44	0x3e1951fa	0.14972678
45	0xbb5505d8	-0.0032504704
46	0x343d2ede	1.7619047e-07
47	0x3a142b5b	0.00056522124
48	0x3749c323	1.2025967e-05
49	0xbb0ec822	-0.002178677
50	0x34aa0f7d	3.1676237e-07
51	0xb5741541	-9.092801e-07
52	0xb558a770	-8.0709924e-07
53	0x376ef6e8	1.4243393e-05
54	0x3a11833a	0.00055508653
55	0xba05b982	-0.000510119
56	0x3b434db4	0.0029800953
57	0x37c3d808	2.3346409e-05
58	0xbd8488d3	-0.0647141
59	0x3a083176	0.00051953585
60	0x358963ba	1.023632e-06
61	0x3a6a39bf	0.00089349964
62	0x3b1479c3	0.0022655583
63	0xbeb24b4a	-0.34823066
64	0xb4ed8555	-4.4241702e-07
65	0xb9981e1f	-0.0002901414
66	0xbbdc54d4	-0.0067239795
67	0xbaa7396a	-0.00127582
68	0xb9fc922f	-0.000481741
69	0x3bc55f8e	0.006023354
70	0xbc914dc1	-0.017737271
71	0xbbff7f9f	-0.007797196
72	0xbb932fb8	-0.0044917725
73	0xb8c09c6f	-9.1844115e-05
74	0x3a625b4b	0.00086348195
75	0x3315c68b	3.487234e-08
76	0xbe27839d	-0.163588
77	0xbc29c4b5	-0.01036184
78	0xbb34d124	-0.0027590478
79	0x35bcd8f8	1.4070238e-06
80	0xbe48d1c1	-0.19611265
81	0x3b234d02	0.0024917726
82	0x3b86790b	0.004103785
83	0x3a88259e	0.0010387187
84	0xb548bd4a	-7.478126e-07
85	0x3e60015b	0.21875517
86	0x3b8bcc5f	0.0042663063
87	0x3e0ff311	0.14057566
88	0x394f46c2	0.00019767418
89	0xbd2aadbb	-0.04166959
90	0xbdecddf1	-0.115657695
91	0xbe0df8fd	-0.13864513
92	0x3b1fdeec	0.0024394346
93	0x3938e1ce	0.00017631726
94	0xbcd8da7f	-0.026471375
95	0xb9c03c22	-0.00036665896
96	0x3ae21ad4	0.0017250427
97	0x3e70cc94	0.2351554
98	0xbe80aeee	-0.2513346
99	0x398ee99f	0.00027258412
100	0x356982e0	8.698971e-07
101	0xbadc4151	-0.0016804134
102	0x3512d007	5.469196e-07
103	0x3a23f973	0.00062551274
104	0xb6af0513	-5.215997e-06
105	0xb883bf22	-6.282168e-05
106	0x365bb173	3.2736832e-06
107	0xbb3836b2	-0.0028108773
108	0x3b80d201	0.0039312844
109	0xbbae6f88	-0.005323354
110	0x3c152616	0.009103319
111	0x3940725e	0.00018353152
112	0x3b8a1930	0.0042144284
113	0xb69175be	-4.3350437e-06
114	0x393d963e	0.00018080414
115	0x3c072621	0.008248837
116	0xbe3b77bf	-0.18307398
117	0xba8977c9	-0.0010487969
118	0x39f198fd	0.00046081087
119	0x3914927e	0.00014168952
120	0x3b0005a3	0.001953461
121	0xb99af37e	-0.00029554585
122	0x38e52a62	0.00010927465
123	0x38197d86	3.6594945e-05
124	0xb8ee03fc	-0.000113494665
125	0x3638de2b	2.7547455e-06
126	0xbed594d2	-0.41715103
127	0xbbd1247e	-0.006382524
128	0x3dd86600	0.1056633
129	0x39e296bc	0.00043218385
130	0xb8539a33	-5.044993e-05
131	0x3bd8d169	0.0066167605
132	0x353af0bc	6.9640714e-07
133	0xba28683d	-0.0006424224
134	0x3cdfcd50	0.02731958
135	0xb5ebc9d2	-1.7567602e-06
136	0xb64e66de	-3.0756269e-06
137	0x3a16b47b	0.00057489396
138	0x3afa9fd0	0.0019121114
139	0xb9b43b01	-0.00034376237
140	0xb9adc91f	-0.00033146978
141	0x3aef479e	0.0018255597
142	0xb54b671a	-7.5773426e-07
143	0xb77f741f	-1.5226221e-05
144	0xbe521fa9	-0.2051989
145	0x3a565542	0.00081761566
146	0x349ee5ec	2.9597084e-07
147	0x3b88b344	0.0041717608
148	0x36141962	2.2068493e-06
149	0x3b7178e2	0.0036845733
150	0x34e8f685	4.3392734e-07
151	0x372018b2	9.542493e-06
152	0xb6374911	-2.7311655e-06
153	0x37ba4b1f	2.2207909e-05
154	0x3ab497df	0.0013778171
155	0x3e14dd68	0.14537585
156	0xbcc199b4	-0.023632862
157	0xb7addae3	-2.0725134e-05
158	0xbdc2550c	-0.09488878
159	0x390fe15d	0.00013721497
160	0xb47efda5	-2.3747869e-07
161	0xbcf20cef	-0.029547183
162	0xba8918a3	-0.0010459613
163	0x3a06d7b7	0.00051438384
164	0xb5a2c424	-1.2127025e-06
165	0x3b96bf12	0.004600414
166	0xb8f2d703	-0.00011579508
167	0x3e940c45	0.2891561
168	0x3b2cead5	0.0026385088
169	0x3ca49768	0.020091727
170	0xbebcde1f	-0.36888215
171	0x3c8cace4	0.017172284
172	0x3bf7f03c	0.00756648
173	0x39822ee4	0.00024830468
174	0x3b5c6b37	0.003363324
175	0xb9f41447	-0.00046554414
176	0x3a9c95a3	0.0011946451
177	0xbda70dfe	-0.08156966
178	0x3bb8033c	0.00561562
179	0x34c980d3	3.75329e-07
180	0xbb8d0321	-0.0043033515
181	0xbac62015	-0.0015115762
182	0xbea8b6e3	-0.32952031
183	0xbb07e844	-0.0020737806
184	0xb4ef3340	-4.4554508e-07
185	0xbb8af60e	-0.004240758
186	0x3bb19e51	0.005420484
187	0xbe08134b	-0.1328861
188	0xbf078ef5	-0.5295251
189	0xbb8dd549	-0.004328404
190	0x3c680704	0.014161829
191	0xbdecc00a	-0.11560066
192	0x3b91b9ae	0.0044471836
193	0x39825cba	0.0002486462
194	0x3a4f1d56	0.0007900795
195	0x3a88632b	0.0010405531
196	0xba5f699f	-0.00085225137
197	0xbd468015	-0.048461992
198	0xbafa40bd	-0.001909278
199	0xba1c3232	-0.00059584074
200	0xb56a4ded	-8.728519e-07
201	0xbe42427f	-0.18970679
202	0xb3fb9fc0	-1.1717157e-07
203	0x3aa9ab14	0.0012944662
204	0x363ef994	2.845748e-06
205	0x3990d18c	0.00027621945
206	0x360fe2aa	2.1440596e-06
207	0xb9817139	-0.00024689155
208	0xbbf7896f	-0.007554225
209	0xbae20a07	-0.001724542
210	0xbc8fc42d	-0.017549599
211	0x39802edf	0.00024448984
212	0xbcb3ad74	-0.021933295
213	0x372040b0	9.551804e-06
214	0xb9953613	-0.00028459783
215	0xbd978975	-0.07399265
216	0x3e19a3c8	0.15003884
217	0xbbb9e716	-0.0056732995
218	0xbe20d300	-0.1570549
219	0x3704e9ae	7.922221e-06
220	0xbda093f9	-0.078407235
221	0xba3bd684	-0.0007165449
222	0x3e7e4bbb	0.24833576
223	0x3d88cb2b	0.06679376
224	0xbcd564d5	-0.026049057
225	0x35a6a1d9	1.2415068e-06
226	0xbccc10cc	-0.024910353
227	0x3e25e224	0.16199547
228	0xbe28003b	-0.16406338
229	0x3e39d588	0.18147862
230	0xba2b3def	-0.0006532361
231	0xbe21bb32	-0.15794066
232	0xb57224a7	-9.020536e-07
233	0xbb05bbdf	-0.002040617
234	0xbcc4c55e	-0.024019893
235	0xb60ed527	-2.128372e-06
236	0xb6654de9	-3.4169009e-06
237	0xbb662cdf	-0.003512196
238	0x3b8653d7	0.00409935
239	0x37c81f1d	2.3856346e-05
240	0x3bf95d33	0.007609987
241	0xbd398519	-0.045292947
242	0x364648a4	2.9546582e-06
243	0x37330ea6	1.0672642e-05
244	0x39b709b2	0.00034911704
245	0xbe8b6378	-0.27224326
246	0xb5078f20	-5.0499693e-07
247	0xba18f485	-0.0005834776
248	0xb5eb1ef1	-1.751787e-06
249	0xbaedf99b	-0.0018156053
250	0x3103bb9c	1.9169653e-09
251	0xb618ff98	-2.279854e-06
252	0xb61ef043	-2.3683685e-06
253	0x3499b0a4	2.8626994e-07
254	0xbd1ee329	-0.038790856
255	0xbe5171f6	-0.20453629
